app/src/main/ml/model_pedigree_female_2.tflite (tflite, 17840 bytes, 8 tensors)

dense_61/bias f4 [6]
0	0x3dc4493d	0.095842816
1	0x3dc6d087	0.09707742
2	0xbe1accd6	-0.15117201
3	0xbe3565be	-0.17714593
4	0x3e2a6eca	0.16643825
5	0xbec2b94e	-0.38032

dense_60/bias f4 [132]
0	0xbd88647f	-0.06659793
1	0x3df04561	0.11731983
2	0xbdc61676	-0.09672253
3	0x3e836f1f	0.25670716
4	0xbd56d4cf	-0.052449044
5	0xbe2ecddb	-0.17070715
6	0xbe4967a0	-0.19668436
7	0x3da84851	0.08216918
8	0xbdd918eb	-0.10600456
9	0xbe46876d	-0.19387598
10	0x3e027bfb	0.12742607
11	0xbc549000	-0.012973785
12	0xbe8aa766	-0.2708084
13	0xbd87a121	-0.0662253
14	0x3dab8424	0.08374813
15	0xbd7e837a	-0.062137105
16	0x3e12eb45	0.1434756
17	0x3ea4b307	0.32167837
18	0xbdef4c94	-0.11684528
19	0xbd0fadba	-0.035077788
20	0x3ec6c448	0.38821626
21	0xbd27908a	-0.040909328
22	0xbdc862c2	-0.097844616
23	0x3dbb5c11	0.0914842
24	0xbe0e16af	-0.1387584
25	0x3de23a3b	0.11046263
26	0xbe013cc9	-0.12620844
27	0x3bf000d3	0.007324317
28	0xbd46ceec	-0.04853718
29	0xbdaa7cfd	-0.08324621
30	0xbe0e8911	-0.13919474
31	0x3cd6fb28	0.026242808
32	0xbd930123	-0.07177951
33	0xbdaf8fd4	-0.08572355
34	0xbe964ef7	-0.2935712
35	0xbd965b1a	-0.07341595
36	0xbdbef691	-0.093243726
37	0xbd8aba55	-0.06773821
38	0xbdc5a456	-0.09650485
39	0xbd1707e9	-0.036872778
40	0xbd330fbb	-0.043716174
41	0xbdb3834f	-0.087652795
42	0xbd83db65	-0.064383306
43	0xbecaf474	-0.39639628
44	0xbcf4b918	-0.029873416
45	0xbe5b10b5	-0.21393092
46	0x3e7b488b	0.24539392
47	0x3df2a1b2	0.11847247
48	0x3e4157e2	0.18881181
49	0xbd2dce2f	-0.04243296
50	0x3e489f98	0.1959213
51	0xbd73291d	-0.05936538
52	0xbd34a680	-0.0441041
53	0xbc6e5b97	-0.014548204
54	0xbd0febdd	-0.035137046
55	0x3c20fa2e	0.0098252725
56	0xbe8236f4	-0.2543255
57	0xbdcae441	-0.09906817
58	0x3e3a69e2	0.18204454
59	0xbe2d3c19	-0.16917457
60	0x3d904e1b	0.070461474
61	0xbddc6428	-0.10761291
62	0x3e885f4c	0.26635206
63	0xbba7a269	-0.0051157963
64	0x3d8dbd95	0.069209255
65	0xbdbd1395	-0.092322506
66	0xbda1ecb3	-0.07906475
67	0x3de6e9d5	0.11275069
68	0xbd5f1bac	-0.05446975
69	0xbe2ad250	-0.1668179
70	0xbee9a7b0	-0.45635748
71	0x3c843204	0.01613713
72	0xbd4a1124	-0.049332753
73	0xbc2c1451	-0.010502891
74	0x3ba9b358	0.00517885
75	0x3e9c289c	0.30499732
76	0x3c4c42b8	0.012467079
77	0x3ce02fc7	0.027366532
78	0x3de9b330	0.114111304
79	0xbb9fa3da	-0.0048718276
80	0xbd9c6ec7	-0.076383166
81	0xbd8b2843	-0.06794789
82	0xbeb949f2	-0.36189228
83	0xbd927fa6	-0.07153253
84	0xbe0084b0	-0.12550616
85	0xbd19d610	-0.03755766
86	0x3e15592c	0.14584798
87	0xbe49530b	-0.19660585
88	0x3e2160c1	0.15759565
89	0xbd9274e0	-0.071511984
90	0xbdb76cbd	-0.08956287
91	0xbcf3193e	-0.029675122
92	0xbda0977d	-0.07841394
93	0xbdf600e2	-0.12011887
94	0x3e4e3f95	0.20141442
95	0xbdea7c3f	-0.11449479
96	0x3e539281	0.20661356
97	0xbd8b7540	-0.06809473
98	0x3e74878a	0.23879829
99	0x3e8251b3	0.25452957
100	0xbdf37c25	-0.11888913
101	0xbd1303de	-0.03589236
102	0x3e26e7c4	0.16299349
103	0xbdd7914e	-0.105257615
104	0x3d219d4b	0.039456647
105	0xbdec3215	-0.1153299
106	0xbe802cde	-0.2503423
107	0xbdf23459	-0.11826391
108	0xbe62908f	-0.22125457
109	0x3c9a05c0	0.01880157
110	0x3d1183ab	0.03552596
111	0x3ca25530	0.019816011
112	0x3e7c4a33	0.2463768
113	0xbd4a5a9e	-0.049402826
114	0x3de058fe	0.10954474
115	0x3d9c1e07	0.07622915
116	0x3da8b8a3	0.08238342
117	0xbd4db3da	-0.050220348
118	0xbce77714	-0.028255023
119	0xbd8a8796	-0.06764142
120	0xbe7d3e66	-0.24730834
121	0x3e0d9093	0.13824682
122	0xbcbe6e2f	-0.023245899
123	0xbc9c5407	-0.019083036
124	0xbd5c648a	-0.05380682
125	0xbd91b2cd	-0.07114182
126	0x3de0da45	0.109791316
127	0xbde14fb9	-0.11001534
128	0x3d63ca62	0.05561293
129	0xbece5b90	-0.40304232
130	0xbc16c034	-0.009201098
131	0xbecbdc46	-0.39816493

dense_59/bias f4 [64]
0	0xbe29b6d2	-0.16573647
1	0xbe29932c	-0.16560048
2	0x3dcdda99	0.1005146
3	0x3db835c7	0.08994632
4	0x3e89fdef	0.26951548
5	0x3f0d740b	0.5525519
6	0xbf0614cd	-0.5237549
7	0x3e613e8b	0.21996514
8	0x3e3a6b59	0.18205012
9	0x3deadb9d	0.11467669
10	0x3eca3d5a	0.39499933
11	0xbc9fdd9a	-0.019514848
12	0x3e96f831	0.2948623
13	0x3dac66d8	0.084180534
14	0x3e875dd3	0.2643877
15	0x3d036b7e	0.032084934
16	0xbe916b6b	-0.28402266
17	0x3d9d0894	0.07667652
18	0x3e2d3dc6	0.16918096
19	0xbcdb194c	-0.02674546
20	0xbeadd2c1	-0.33949855
21	0xbe1a0148	-0.15039551
22	0xbec78eca	-0.38976127
23	0x3dc3728e	0.09543334
24	0x3ef5d021	0.48010352
25	0xbe00de74	-0.12584859
26	0xbde940c3	-0.113893054
27	0xbe5a3945	-0.21310909
28	0x3e7e35a9	0.24825157
29	0xbd0ea6f0	-0.034827173
30	0xbe72432f	-0.23658441
31	0xbcc2db8c	-0.023786329
32	0xbdac4f8a	-0.08413608
33	0xbe52711a	-0.20550957
34	0x3eebec8d	0.4607891
35	0xbecdf731	-0.40227655
36	0x3e62ecef	0.22160695
37	0xbd9e5605	-0.07731251
38	0xbe227b32	-0.15867308
39	0xbdc60e60	-0.096707106
40	0xbe8e10e4	-0.27747262
41	0x3d89c7d2	0.06727566
42	0x3eecbffe	0.46240228
43	0xbe50d274	-0.20392781
44	0xbee7b71d	-0.45256892
45	0xbd3730d8	-0.044724315
46	0x3e1f4db2	0.15556982
47	0x3edc41de	0.43019003
48	0xbdbd3c9b	-0.09240075
49	0x3ede4042	0.434084
50	0xbdd60d13	-0.104517125
51	0xbed906d8	-0.42388034
52	0x3e2138fb	0.15744393
53	0xbd0216da	-0.031760074
54	0xbcbc4b15	-0.02298502
55	0x3ed0a688	0.40752053
56	0x3ea1aff0	0.31579542
57	0x3f293ea4	0.66111207
58	0x3d4d61d4	0.050142124
59	0x3d33e603	0.04392053
60	0x3e30d816	0.1726993
61	0x3def63e3	0.11688974
62	0x3eb11b2a	0.34591037
63	0x3c4af1ef	0.012386783

dense_58/bias f4 [32]
0	0x3e455662	0.19271234
1	0xbe3f1d91	-0.18663622
2	0x3f02c63d	0.5108374
3	0xbe71229f	-0.23548363
4	0xbe9ed731	-0.31023553
5	0x00000000	0.0
6	0xbdf7cfaa	-0.12100156
7	0x3cece916	0.028919738
8	0x3dd3fd92	0.10351099
9	0xbf2e2f95	-0.68041354
10	0xbef1d28e	-0.47230953
11	0x3e216e06	0.15764627
12	0xbe887556	-0.2665202
13	0xbcd4870e	-0.025943305
14	0xbec7d3b7	-0.39028713
15	0xbe72fdd5	-0.23729642
16	0x3f04222b	0.51614636
17	0x00000000	0.0
18	0x3e790320	0.24317598
19	0x3e8298f4	0.2550732
20	0x3e2ea960	0.17056799
21	0xbe5668bf	-0.20938395
22	0xbd4de66e	-0.050268583
23	0xbec8e3d9	-0.39236334
24	0x3ef5d6a6	0.48015326
25	0xbef398e8	-0.47577596
26	0xbba79f4e	-0.005115426
27	0x3e18de0e	0.14928457
28	0x3e9c23a3	0.3049594
29	0x3df991e0	0.121860266
30	0xbd1f72e7	-0.03892794
31	0xbe3f8c97	-0.18705975

sequential_15/dense_58/MatMul f4 [32, 4]
0	0x3dd840fb	0.10559269
1	0xbe066c99	-0.13127364
2	0xbed9b29c	-0.4251908
3	0x3f326592	0.69686234
4	0x3c87e3d6	0.016588133
5	0x3e95c0a3	0.29248533
6	0x3e01976a	0.12655416
7	0xbf21c323	-0.6318838
8	0xbfa474f2	-1.2848189
9	0x3d789b72	0.06069512
10	0x3e72e166	0.23718795
11	0xbb714933	-0.0036817312
12	0xbe4443f3	-0.19166546
13	0xbe89ad07	-0.26889822
14	0x3eb3ae14	0.3509375
15	0xbf17b0a7	-0.59253925
16	0x3e5e385e	0.2170119
17	0x3e9beedc	0.30455673
18	0xbd083f46	-0.033263467
19	0x3e2d02d0	0.16895604
20	0xbe56b6e2	-0.20968202
21	0xbd904534	-0.070444494
22	0xbdafbed8	-0.085813224
23	0xbe7d2d38	-0.24724281
24	0x3e6da595	0.23207696
25	0x3f255ea9	0.64597565
26	0xbea61707	-0.32439443
27	0xbe5e3210	-0.21698785
28	0xbcaf4abe	-0.021397945
29	0x3f227981	0.6346665
30	0xbf005128	-0.50123835
31	0x3f4447c5	0.7667201
32	0x3f0e5332	0.55595696
33	0xbe409629	-0.18807282
34	0xbe4bbb8b	-0.1989576
35	0xbe011f0a	-0.12609497
36	0x3dd6e873	0.10493555
37	0x3e78752d	0.24263449
38	0x3e80b834	0.25140536
39	0x3d4b8123	0.0496837
40	0xbe4eafa8	-0.20184195
41	0xbdff78e1	-0.12474228
42	0x3ed2bc5e	0.41159338
43	0xbe80d458	-0.25162005
44	0x3ed64765	0.41851345
45	0xbd39b51c	-0.045338735
46	0xbda9d116	-0.08291833
47	0x3e1f796c	0.15573663
48	0xbe8a50fe	-0.27014917
49	0x3d3c4111	0.04596049
50	0x3ebc1d58	0.36741138
51	0x3ca9e7cb	0.02074041
52	0xbf1d08be	-0.61341465
53	0x3eea2343	0.45730028
54	0x3e3cad76	0.18425545
55	0x3e471bbb	0.19444172
56	0x3eb7b310	0.358788
57	0x3e09b14e	0.13446543
58	0xbc2b89d6	-0.010469874
59	0xbe47b7e2	-0.1950374
60	0xbeb77c45	-0.35836998
61	0x3ee247e8	0.44195485
62	0x3e713578	0.23555553
63	0xbe9480be	-0.29004472
64	0xbe06ee53	-0.13176851
65	0x3eaed096	0.34143513
66	0x3cae0402	0.021242145
67	0xbf489b18	-0.78361654
68	0xbea3419a	-0.31885988
69	0xbe0e12ec	-0.13874406
70	0xbe357db2	-0.1772373
71	0xbec4409e	-0.3833055
72	0x3eb08517	0.3447654
73	0xbe3b7249	-0.18305315
74	0xbe4cd582	-0.20003322
75	0xbd91999b	-0.07109376
76	0xbe7888dd	-0.24270959
77	0x3ef2c6f6	0.4741742
78	0x3d340d67	0.043958094
79	0x3ea7e565	0.32792202
80	0xbe3dd4ad	-0.1853816
81	0x3edb0fb2	0.42785412
82	0xbd2cde30	-0.042204082
83	0x3f02384e	0.50867164
84	0x3e9b55d5	0.30338922
85	0xbdb553da	-0.08853884
86	0xbc5adbb0	-0.013358042
87	0x3f1bf3a8	0.60918665
88	0xbea4345b	-0.32071194
89	0x3dc14aa7	0.09438067
90	0x3e687ca3	0.22703795
91	0x3ecdbc6a	0.4018281
92	0x3ed94f38	0.42443252
93	0x3f468e06	0.7756046
94	0x3e342f42	0.17596152
95	0xbd8b7f8e	-0.068114385
96	0x3d4298df	0.04750907
97	0xbdb3da02	-0.08781816
98	0xbe08ebd4	-0.13371211
99	0x3d0ead1e	0.034833066
100	0x3e1ce409	0.15321364
101	0xbadd8d57	-0.0016903084
102	0x3e635e2e	0.22203895
103	0xbd8b2304	-0.06793788
104	0xbe7b70c4	-0.24554735
105	0xbeada3ed	-0.33914128
106	0xbddc33c5	-0.10752062
107	0x3e56f4e7	0.2099186
108	0x3f16322c	0.58670306
109	0xbde87ce6	-0.113519475
110	0xbf176486	-0.5913776
111	0xbde5cc99	-0.112206645
112	0xbe63d932	-0.22250822
113	0xbf088c5a	-0.5333916
114	0x3e3e35c4	0.18575197
115	0x3ea0f56f	0.3143725
116	0x3e80ce85	0.25157562
117	0x3efca063	0.49341115
118	0xbef5ac46	-0.47982997
119	0x3e0e2a27	0.13883267
120	0x3ead2de8	0.33824086
121	0xbec3dd76	-0.382549
122	0x3b94cf68	0.0045413263
123	0x3eea6677	0.457813
124	0xbeddf09d	-0.43347636
125	0x3d799404	0.060932174
126	0x3f00ae07	0.50265545
127	0xbd38d12c	-0.045121357

sequential_15/dense_59/MatMul i1 [64, 32] scale=0.016225953 zero_point=0
0	0xfd	-0.048677858
1	0xf8	-0.12980762
2	0x07	0.11358167
3	0xee	-0.29206714
4	0x10	0.25961524
5	0x02	0.032451905
6	0x16	0.35697097
7	0x12	0.29206714
8	0x16	0.35697097
9	0xde	-0.5516824
10	0xd7	-0.66526407
11	0x0c	0.19471143
12	0xe1	-0.50300455
13	0xdb	-0.6003603
14	0x0d	0.21093738
15	0xd4	-0.71394193
16	0xf2	-0.22716334
17	0x0e	0.22716334
18	0x04	0.06490381
19	0xf1	-0.2433893
20	0x03	0.048677858
21	0x0a	0.16225952
22	0xd8	-0.6490381
23	0xf9	-0.11358167
24	0xff	-0.016225953
25	0xf0	-0.25961524
26	0x08	0.12980762
27	0x1e	0.4867786
28	0xf6	-0.16225952
29	0x09	0.14603357
30	0xf9	-0.11358167
31	0xe5	-0.43810073
32	0x0f	0.2433893
33	0xe5	-0.43810073
34	0x06	0.097355716
35	0xf8	-0.12980762
36	0x1d	0.47055262
37	0xf1	-0.2433893
38	0xfc	-0.06490381
39	0x1f	0.50300455
40	0xfe	-0.032451905
41	0xf5	-0.17848548
42	0xfb	-0.08112976
43	0xf3	-0.21093738
44	0x09	0.14603357
45	0xf0	-0.25961524
46	0x0b	0.17848548
47	0x05	0.08112976
48	0xea	-0.35697097
49	0x0a	0.16225952
50	0x17	0.3731969
51	0xea	-0.35697097
52	0xfe	-0.032451905
53	0x09	0.14603357
54	0xfe	-0.032451905
55	0xfd	-0.048677858
56	0x02	0.032451905
57	0xea	-0.35697097
58	0x07	0.11358167
59	0x0c	0.19471143
60	0xfd	-0.048677858
61	0xfd	-0.048677858
62	0xfc	-0.06490381
63	0xf2	-0.22716334
64	0x07	0.11358167
65	0x05	0.08112976
66	0x08	0.12980762
67	0xe2	-0.4867786
68	0x0f	0.2433893
69	0x08	0.12980762
70	0xf5	-0.17848548
71	0xf1	-0.2433893
72	0xf9	-0.11358167
73	0xec	-0.32451904
74	0xf1	-0.2433893
75	0x0f	0.2433893
76	0xfe	-0.032451905
77	0xd0	-0.7788457
78	0x0c	0.19471143
79	0x00	0.0
80	0xfa	-0.097355716
81	0x00	0.0
82	0xfa	-0.097355716
83	0xf9	-0.11358167
84	0xfd	-0.048677858
85	0xfe	-0.032451905
86	0x0c	0.19471143
87	0x0c	0.19471143
88	0x04	0.06490381
89	0xfd	-0.048677858
90	0xf4	-0.19471143
91	0xe0	-0.5192305
92	0xf3	-0.21093738
93	0xe9	-0.3731969
94	0x09	0.14603357
95	0xf1	-0.2433893
96	0x1d	0.47055262
97	0xfd	-0.048677858
98	0x31	0.79507166
99	0xf8	-0.12980762
100	0xeb	-0.340745
101	0x00	0.0
102	0xfd	-0.048677858
103	0x3a	0.94110525
104	0xf7	-0.14603357
105	0xe9	-0.3731969
106	0x09	0.14603357
107	0xd3	-0.73016787
108	0x07	0.11358167
109	0x0b	0.17848548
110	0xea	-0.35697097
111	0xf6	-0.16225952
112	0x14	0.32451904
113	0x02	0.032451905
114	0x0c	0.19471143
115	0xf7	-0.14603357
116	0x0c	0.19471143
117	0xf1	-0.2433893
118	0x0d	0.21093738
119	0xea	-0.35697097
120	0x0b	0.17848548
121	0xec	-0.32451904
122	0xf5	-0.17848548
123	0xfc	-0.06490381
124	0xfe	-0.032451905
125	0x07	0.11358167
126	0xe4	-0.4543267
127	0x01	0.016225953
128	0x11	0.2758412
129	0xfd	-0.048677858
130	0xfc	-0.06490381
131	0xf4	-0.19471143
132	0xea	-0.35697097
133	0xfd	-0.048677858
134	0x0c	0.19471143
135	0xf6	-0.16225952
136	0x0a	0.16225952
137	0xcc	-0.8437495
138	0xed	-0.3082931
139	0x06	0.097355716
140	0xf8	-0.12980762
141	0xee	-0.29206714
142	0xef	-0.2758412
143	0xe5	-0.43810073
144	0x17	0.3731969
145	0xf4	-0.19471143
146	0x03	0.048677858
147	0xe6	-0.42187476
148	0xf8	-0.12980762
149	0xfb	-0.08112976
150	0x20	0.5192305
151	0xe9	-0.3731969
152	0x17	0.3731969
153	0xe2	-0.4867786
154	0xfd	-0.048677858
155	0x06	0.097355716
156	0x0b	0.17848548
157	0xfc	-0.06490381
158	0xfc	-0.06490381
159	0x00	0.0
160	0xf4	-0.19471143
161	0xfc	-0.06490381
162	0x0d	0.21093738
163	0xfe	-0.032451905
164	0xf1	-0.2433893
165	0xfc	-0.06490381
166	0xe8	-0.38942286
167	0x05	0.08112976
168	0xff	-0.016225953
169	0xd3	-0.73016787
170	0xf7	-0.14603357
171	0x0f	0.2433893
172	0x00	0.0
173	0xea	-0.35697097
174	0xf7	-0.14603357
175	0xf5	-0.17848548
176	0x1d	0.47055262
177	0xfa	-0.097355716
178	0x04	0.06490381
179	0xf7	-0.14603357
180	0x11	0.2758412
181	0x0d	0.21093738
182	0xfc	-0.06490381
183	0xf1	-0.2433893
184	0xfe	-0.032451905
185	0xee	-0.29206714
186	0x0c	0.19471143
187	0xe2	-0.4867786
188	0x0f	0.2433893
189	0xe0	-0.5192305
190	0xf8	-0.12980762
191	0xf9	-0.11358167
192	0xd4	-0.71394193
193	0x04	0.06490381
194	0x01	0.016225953
195	0xfe	-0.032451905
196	0x18	0.38942286
197	0x0d	0.21093738
198	0x08	0.12980762
199	0xff	-0.016225953
200	0xf5	-0.17848548
201	0x10	0.25961524
202	0xf4	-0.19471143
203	0x07	0.11358167
204	0xfb	-0.08112976
205	0xb3	-1.2493984
206	0x19	0.40564883
207	0xf7	-0.14603357
208	0xf2	-0.22716334
209	0xfb	-0.08112976
210	0xff	-0.016225953
211	0xeb	-0.340745
212	0xb6	-1.2007205
213	0x14	0.32451904
214	0xf3	-0.21093738
215	0x16	0.35697097
216	0xf0	-0.25961524
217	0x06	0.097355716
218	0xf2	-0.22716334
219	0x0f	0.2433893
220	0xfd	-0.048677858
221	0xf3	-0.21093738
222	0x07	0.11358167
223	0x01	0.016225953
224	0xf4	-0.19471143
225	0x0e	0.22716334
226	0xd8	-0.6490381
227	0xf7	-0.14603357
228	0x03	0.048677858
229	0x0b	0.17848548
230	0x08	0.12980762
231	0x11	0.2758412
232	0xed	-0.3082931
233	0x11	0.2758412
234	0xf0	-0.25961524
235	0x01	0.016225953
236	0xee	-0.29206714
237	0x13	0.3082931
238	0x0b	0.17848548
239	0x14	0.32451904
240	0x36	0.87620145
241	0x0f	0.2433893
242	0xfe	-0.032451905
243	0x15	0.340745
244	0x06	0.097355716
245	0xf1	-0.2433893
246	0xff	-0.016225953
247	0x0a	0.16225952
248	0x09	0.14603357
249	0x02	0.032451905
250	0x0c	0.19471143
251	0xe7	-0.40564883
252	0xec	-0.32451904
253	0xf7	-0.14603357
254	0xe9	-0.3731969
255	0xf3	-0.21093738

sequential_15/dense_60/MatMul i1 [132, 64] scale=0.019629324 zero_point=0
0	0xfc	-0.078517295
1	0x09	0.17666392
2	0xff	-0.019629324
3	0x01	0.019629324
4	0xfe	-0.039258648
5	0xfc	-0.078517295
6	0xe4	-0.54962105
7	0x15	0.4122158
8	0xfb	-0.09814662
9	0xf8	-0.15703459
10	0x09	0.17666392
11	0x03	0.058887973
12	0x0d	0.25518122
13	0xff	-0.019629324
14	0xf7	-0.17666392
15	0xf8	-0.15703459
16	0xfb	-0.09814662
17	0xf4	-0.2355519
18	0x00	0.0
19	0x02	0.039258648
20	0xf8	-0.15703459
21	0xff	-0.019629324
22	0x00	0.0
23	0xfc	-0.078517295
24	0x0c	0.2355519
25	0xfa	-0.11777595
26	0xf3	-0.25518122
27	0x01	0.019629324
28	0x02	0.039258648
29	0x01	0.019629324
30	0x03	0.058887973
31	0xfb	-0.09814662
32	0x01	0.019629324
33	0x00	0.0
34	0x02	0.039258648
35	0xfe	-0.039258648
36	0xff	-0.019629324
37	0x07	0.13740526
38	0xfb	-0.09814662
39	0x04	0.078517295
40	0x03	0.058887973
41	0xf7	-0.17666392
42	0x0c	0.2355519
43	0x09	0.17666392
44	0x01	0.019629324
45	0xf8	-0.15703459
46	0x01	0.019629324
47	0x00	0.0
48	0x0d	0.25518122
49	0x0a	0.19629323
50	0xfd	-0.058887973
51	0x01	0.019629324
52	0x05	0.09814662
53	0xf7	-0.17666392
54	0x00	0.0
55	0x0d	0.25518122
56	0x0f	0.29443985
57	0xff	-0.019629324
58	0x0a	0.19629323
59	0x06	0.11777595
60	0xfb	-0.09814662
61	0x05	0.09814662
62	0x03	0.058887973
63	0x0b	0.21592256
64	0xef	-0.3336985
65	0xf8	-0.15703459
66	0x01	0.019629324
67	0xf4	-0.2355519
68	0x0b	0.21592256
69	0x0c	0.2355519
70	0xe9	-0.45147446
71	0x0a	0.19629323
72	0xfc	-0.078517295
73	0xfa	-0.11777595
74	0x0a	0.19629323
75	0xfd	-0.058887973
76	0x05	0.09814662
77	0x03	0.058887973
78	0xe5	-0.52999175
79	0xf9	-0.13740526
80	0xfb	-0.09814662
81	0xea	-0.43184513
82	0x04	0.078517295
83	0x06	0.11777595
84	0x01	0.019629324
85	0x03	0.058887973
86	0xf8	-0.15703459
87	0xff	-0.019629324
88	0x01	0.019629324
89	0xf7	-0.17666392
90	0xfa	-0.11777595
91	0xe6	-0.51036245
92	0xf3	-0.25518122
93	0xf3	-0.25518122
94	0xe8	-0.4711038
95	0x04	0.078517295
96	0x0a	0.19629323
97	0x04	0.078517295
98	0x19	0.4907331
99	0xfb	-0.09814662
100	0x0f	0.29443985
101	0xf6	-0.19629323
102	0xfc	-0.078517295
103	0xfd	-0.058887973
104	0x06	0.11777595
105	0xf9	-0.13740526
106	0x06	0.11777595
107	0xef	-0.3336985
108	0xf0	-0.31406918
109	0xfc	-0.078517295
110	0xf4	-0.2355519
111	0x05	0.09814662
112	0x08	0.15703459
113	0x06	0.11777595
114	0xf4	-0.2355519
115	0xfa	-0.11777595
116	0x02	0.039258648
117	0x04	0.078517295
118	0xf6	-0.19629323
119	0x18	0.4711038
120	0x10	0.31406918
121	0x02	0.039258648
122	0xed	-0.37295714
123	0x13	0.37295714
124	0xf6	-0.19629323
125	0xf6	-0.19629323
126	0xfe	-0.039258648
127	0x04	0.078517295
128	0xfb	-0.09814662
129	0x00	0.0
130	0x0f	0.29443985
131	0xfc	-0.078517295
132	0xfe	-0.039258648
133	0xf4	-0.2355519
134	0x02	0.039258648
135	0x15	0.4122158
136	0xfb	-0.09814662
137	0xea	-0.43184513
138	0x09	0.17666392
139	0x0c	0.2355519
140	0xf6	-0.19629323
141	0xff	-0.019629324
142	0xf5	-0.21592256
143	0x02	0.039258648
144	0xf7	-0.17666392
145	0x02	0.039258648
146	0xff	-0.019629324
147	0xf9	-0.13740526
148	0x09	0.17666392
149	0xf9	-0.13740526
150	0xfc	-0.078517295
151	0x02	0.039258648
152	0xfd	-0.058887973
153	0xf7	-0.17666392
154	0x04	0.078517295
155	0xf9	-0.13740526
156	0x09	0.17666392
157	0x07	0.13740526
158	0x04	0.078517295
159	0xf9	-0.13740526
160	0xfb	-0.09814662
161	0x04	0.078517295
162	0xff	-0.019629324
163	0xfd	-0.058887973
164	0x00	0.0
165	0x01	0.019629324
166	0x01	0.019629324
167	0xfb	-0.09814662
168	0xfb	-0.09814662
169	0xf4	-0.2355519
170	0x00	0.0
171	0x07	0.13740526
172	0xfb	-0.09814662
173	0x03	0.058887973
174	0xf7	-0.17666392
175	0xfd	-0.058887973
176	0xf6	-0.19629323
177	0xf9	-0.13740526
178	0xf9	-0.13740526
179	0x00	0.0
180	0xf6	-0.19629323
181	0xf9	-0.13740526
182	0x01	0.019629324
183	0x05	0.09814662
184	0x0b	0.21592256
185	0x07	0.13740526
186	0x06	0.11777595
187	0xe8	-0.4711038
188	0xf5	-0.21592256
189	0x06	0.11777595
190	0x0b	0.21592256
191	0xff	-0.019629324
192	0x0a	0.19629323
193	0x20	0.62813836
194	0x17	0.45147446
195	0xde	-0.667397
196	0xf9	-0.13740526
197	0xfd	-0.058887973
198	0xcf	-0.9618369
199	0x0c	0.2355519
200	0xee	-0.35332784
201	0x11	0.3336985
202	0x18	0.4711038
203	0x06	0.11777595
204	0xf8	-0.15703459
205	0x09	0.17666392
206	0xd5	-0.8440609
207	0xf5	-0.21592256
208	0xfb	-0.09814662
209	0xf5	-0.21592256
210	0x0f	0.29443985
211	0x01	0.019629324
212	0x10	0.31406918
213	0x15	0.4122158
214	0x00	0.0
215	0x08	0.15703459
216	0x0c	0.2355519
217	0x00	0.0
218	0x12	0.35332784
219	0x0a	0.19629323
220	0x02	0.039258648
221	0xf6	-0.19629323
222	0x0c	0.2355519
223	0x09	0.17666392
224	0x04	0.078517295
225	0x00	0.0
226	0x0c	0.2355519
227	0xfe	-0.039258648
228	0x16	0.43184513
229	0xff	-0.019629324
230	0x0d	0.25518122
231	0x03	0.058887973
232	0x07	0.13740526
233	0xec	-0.39258647
234	0x09	0.17666392
235	0x0a	0.19629323
236	0x03	0.058887973
237	0xfa	-0.11777595
238	0xfa	-0.11777595
239	0x08	0.15703459
240	0xf8	-0.15703459
241	0xfb	-0.09814662
242	0x00	0.0
243	0x1a	0.51036245
244	0x09	0.17666392
245	0x06	0.11777595
246	0x0a	0.19629323
247	0xf5	-0.21592256
248	0x07	0.13740526
249	0x07	0.13740526
250	0xf6	-0.19629323
251	0x0a	0.19629323
252	0x0b	0.21592256
253	0x00	0.0
254	0x11	0.3336985
255	0x07	0.13740526

sequential_15/dense_61/MatMul f4 [6, 132]
0	0x3dab6d9b	0.08370515
1	0xbefa261b	-0.48857197
2	0xbd813f74	-0.06310931
3	0xc00f7a2a	-2.2418313
4	0xbe4c357a	-0.19942275
5	0xbe8069b4	-0.25080645
6	0x3e3894d6	0.18025526
7	0x3e42d454	0.19026309
8	0xbb00c61a	-0.0019649328
9	0xbf57cd47	-0.84297603
10	0xbfbe5fe1	-1.487301
11	0x3df3d1cf	0.11905252
12	0xbfa72a83	-1.3059849
13	0xbef632f4	-0.4808575
14	0xbfd03fb2	-1.6269438
15	0xbd525f1f	-0.051360246
16	0x3e08e253	0.13367586
17	0x3e26ef12	0.16302136
18	0xbd807ac4	-0.06273416
19	0x3e27be7d	0.1638126
20	0x3dfba952	0.12288155
21	0xbe29ff6a	-0.16601339
22	0x3ef65723	0.48113355
23	0xbdd0d3e6	-0.101966664
24	0xbf76312e	-0.9616879
25	0xbfdab200	-1.7085571
26	0xbde44afc	-0.11147115
27	0xbdd642f2	-0.104619876
28	0x3e0134cb	0.12617795
29	0xbdaa5c0e	-0.08318339
30	0xbf1dfe47	-0.6171612
31	0xbf93b3df	-1.1539267
32	0x3dea176a	0.11430247
33	0xbde7a86a	-0.11311419
34	0x3ca7a24d	0.020463133
35	0x3dec4813	0.115371846
36	0x3e0061e2	0.1253734
37	0xbc07c1c5	-0.008285944
38	0x3e3b9565	0.18318708
39	0x3c89f719	0.016841458
40	0x3dccf78a	0.10008152
41	0xbe26dc7f	-0.1629505
42	0xbed63328	-0.41835904
43	0xc020f4a9	-2.5149329
44	0xbea6359b	-0.32462773
45	0xbf6dd7ce	-0.92907417
46	0xc02ad187	-2.6690385
47	0x3e0d67fd	0.138092
48	0xc0132d79	-2.2996504
49	0xbc7d4baf	-0.015459939
50	0x3e37cc01	0.17948915
51	0xbec05872	-0.37567478
52	0xbee6ba97	-0.45064232
53	0xbd353409	-0.044239078
54	0xbe0bae4a	-0.13640705
55	0xbdbed5e1	-0.09318138
56	0xbfb96892	-1.4485037
57	0x3dea2836	0.11433451
58	0x3e41e0c3	0.18933396
59	0x3da04ae6	0.07826786
60	0x3ea1d99e	0.3161134
61	0x3e41f4df	0.18941067
62	0x3d953743	0.07285931
63	0xbdcf6d0e	-0.101282224
64	0x3d1e42d2	0.038637944
65	0xbfbfce85	-1.49849
66	0x3d027de0	0.031858325
67	0x3e1e3dc5	0.1545325
68	0xbd7e0c18	-0.062023252
69	0xbf06b04d	-0.52612764
70	0xc0352df0	-2.8309288
71	0xbc948373	-0.018129086
72	0xbec924bb	-0.39285836
73	0x3e4f52d2	0.20246437
74	0x3af3460f	0.0018560308
75	0x3e1b06ba	0.15139285
76	0x3e0f8e0b	0.14019029
77	0x3e2b1e04	0.16710669
78	0xbf62d199	-0.8860107
79	0x3ee44ee8	0.4459145
80	0x3d601951	0.054711644
81	0xbf277b43	-0.6542246
82	0xbf5aa69d	-0.8541048
83	0x3da14e94	0.07876316
84	0xbf6e4e15	-0.93087894
85	0x3c77395a	0.015089357
86	0x3fa5e862	1.2961543
87	0xbde15e90	-0.110043645
88	0xc01dc0e1	-2.4648974
89	0x3d335876	0.043785535
90	0xbe878bdb	-0.2647389
91	0xbe098dd9	-0.13433017
92	0xbf84fd22	-1.038975
93	0xbf3fb265	-0.74881583
94	0xbf18a0f0	-0.5962057
95	0xbe2997a0	-0.16561747
96	0x3bf4a799	0.0074662683
97	0x3cc78959	0.024357485
98	0x3e055856	0.13021979
99	0xbccda26e	-0.025101867
100	0x3f380bc3	0.71892947
101	0x3e48c4eb	0.19606368
102	0xbf47f3f0	-0.78106594
103	0x3d8cbf83	0.068724655
104	0x3e993f7f	0.29931256
105	0xbe110417	-0.14161716
106	0xbf510b5c	-0.8165796
107	0x3bf02a83	0.0073292865
108	0xbef6c0ac	-0.48193872
109	0x3d713688	0.058889896
110	0x3c8ae5b5	0.016955236
111	0x3eb98055	0.36230722
112	0x3e42ffcc	0.19042891
113	0x3e1afc06	0.15135202
114	0xbf45a504	-0.7720492
115	0x3ea3a01a	0.31958085
116	0xbf72cb2e	-0.9484128
117	0xbd6ef30c	-0.058337256
118	0xbe6c5505	-0.23079307
119	0xbeb57a02	-0.35444647
120	0x3c5c0069	0.013427832
121	0x3da15c05	0.078788795
122	0xbf22c4b2	-0.63581383
123	0xbc30d3cd	-0.010792685
124	0xbe0507e6	-0.12991294
125	0xbe884ddb	-0.266219
126	0xbe616561	-0.22011329
127	0x3e731ea6	0.2374216
128	0x3d994d08	0.07485396
129	0xc00cb468	-2.1985111
130	0xbfa4d759	-1.2878219
131	0xc05de742	-3.4672399
132	0x3d982b7a	0.074301675
133	0x3e3b2f0c	0.18279666
134	0x3d9543ba	0.072883084
135	0x3db28ecc	0.087186426
136	0x3e274f30	0.16338801
137	0x3e9b9716	0.30388707
138	0x3dbac7ab	0.09120115
139	0x3e34c9cb	0.17655103
140	0x3dec281c	0.11531088
141	0xbf4b4110	-0.7939615
142	0x3e3e356d	0.18575068
143	0x3dfa7854	0.12229982
144	0xbdb90a4c	-0.09035167
145	0xbe480fbe	-0.19537255
146	0xbbaa83e3	-0.0052037104
147	0x3c5fe965	0.013666485
148	0x3e007c40	0.12547398
149	0x3df465db	0.1193349
150	0xbdd9b1ce	-0.10629617
151	0xbd0dd26b	-0.0346245
152	0x3dcc0c8b	0.0996333
153	0xbd886106	-0.06659131
154	0x3e0b6631	0.13613202
155	0x3dd662dd	0.104680754
156	0xbe97965c	-0.29606903
157	0xbe18f8e7	-0.14938699
158	0x3e0622e7	0.13099252
159	0xbf7d7052	-0.9899951
160	0xbf8d1bfb	-1.1024164
161	0xbf57922f	-0.84207433
162	0xbe9a9ae6	-0.30196303
163	0xbe57607e	-0.21032903
164	0x3dd8dd72	0.10589112
165	0xbda38626	-0.07984571
166	0x3dcafdf4	0.09911719
167	0xbe403d3d	-0.1877336
168	0x3dd548da	0.10414286
169	0xbf2ca5d7	-0.6744055
170	0x3e451774	0.19247228
171	0x3dc4fa8a	0.09618099
172	0x3d9a0be6	0.07521801
173	0x3d5230fd	0.05131625
174	0xbed7159c	-0.42008674
175	0xbec6d2f3	-0.38832816
176	0x3b00158e	0.0019544098
177	0xbf74d0a3	-0.95630854
178	0xbe7c4173	-0.24634342
179	0xbe049664	-0.12947994
180	0x3e003bea	0.12522855
181	0x3e00fffe	0.12597653
182	0x3d243d32	0.040097423
183	0x3d3ec9f9	0.046579335
184	0x3d28ab91	0.041179243
185	0xbd5c3342	-0.05375982
186	0x3db2363d	0.087017514
187	0xbdccbfc4	-0.09997514
188	0xbf8e05a1	-1.1095468
189	0xbf021a05	-0.5082095
190	0x3e2cde5d	0.168817
191	0x3d5774cf	0.05260163
192	0xbfb3ee34	-1.4057069
193	0x3e3dd172	0.18536928
194	0x3dea2e34	0.11434594
195	0xbc70ea44	-0.014704291
196	0x3cd30d18	0.02576308
197	0x3ee11c90	0.43967104
198	0x3c339368	0.010960437
199	0x3e147f10	0.14501595
200	0xbe054eaf	-0.13018297
201	0x3d1a6efc	0.0377035
202	0xbe2ac899	-0.16678084
203	0xbe28962e	-0.16463539
204	0xbce45e3f	-0.027876971
205	0xbda18ad3	-0.07887807
206	0x3e3309f4	0.17484266
207	0x3e147e41	0.14501287
208	0x3e0acb51	0.13554122
209	0xbfd1d7d1	-1.6393987
210	0xbe18f535	-0.14937289
211	0xbebdf175	-0.3709828
212	0x3daa65d7	0.08320206
213	0xbec79cfc	-0.38986957
214	0xbf388d4b	-0.72090596
215	0x3ddcc9a7	0.1078065
216	0x3ce1d86d	0.02756902
217	0x3d7bb029	0.061447296
218	0xbd046bb7	-0.032329287
219	0xbe1d6227	-0.15369473
220	0x3e2d48aa	0.1692225
221	0x3d7099de	0.05874049
222	0xba2bc40e	-0.0006552347
223	0x3de01009	0.109405585
224	0xbf4a7d5b	-0.7909753
225	0xbf0206fc	-0.5079191
226	0xbd9441a2	-0.07239081
227	0xbc04d934	-0.008108426
228	0xb96b7414	-0.00022454589
229	0xbf0c38d8	-0.54774237
230	0x3e038c16	0.12846407
231	0x3b78a76e	0.0037941593
232	0xbf42a9c1	-0.76040274
233	0xbd68a173	-0.056794595
234	0x3da4b122	0.08041598
235	0xbdb1c2fc	-0.086797684
236	0xbff6de20	-1.9286537
237	0xbe0e4042	-0.138917
238	0xbf489d8f	-0.78365415
239	0xbd327204	-0.043565765
240	0xbd6679e1	-0.056268577
241	0xbcfb2cce	-0.030661013
242	0x3c3d79b9	0.0115646655
243	0xbd4e7e4b	-0.05041341
244	0x3e16fa88	0.14744008
245	0xbe108b45	-0.14115627
246	0xbe46760b	-0.19380967
247	0xbfaea3b6	-1.3643711
248	0xbeb2233f	-0.34792516
249	0xbbfa0d22	-0.00763096
250	0xbe9a8735	-0.3018128
251	0xbf43b2b4	-0.76444554
252	0x3c0cd39a	0.008595372
253	0x3d8c95cd	0.0686451
254	0x3de7da75	0.11320964
255	0xb9401438	-0.00018318079
