app/src/main/ml/model_pedigree_female_4.tflite (tflite, 17616 bytes, 8 tensors)

dense_23/bias f4 [6]
000000 16 a1 6a 3d 07 bf d4 3d ab dc 07 be 92 d2 85 be
       0.05728253 0.10387998 -0.13267772 -0.26137215
000010 56 34 24 3e c0 23 4f be
       0.1603559 -0.20228481

dense_22/bias f4 [132]
000000 40 a1 03 be 8d 66 29 bd 1c b1 80 3e ec ff c1 3d
       -0.1285448 -0.041357566 0.25135124 0.09472641
000010 bf cb bd 3d a1 80 7e bd 9c a2 01 bd 1c b5 1a 3e
       0.09267377 -0.06213439 -0.031649217 0.1510815
000020 ac 88 49 3c b9 cb b4 3d ea f2 85 bd 59 c8 ed 3d
       0.0123006515 0.088279195 -0.06540473 0.11610479
000030 93 70 f6 3b fd a4 b3 3d c3 69 65 bc c0 5c 08 bf
       0.007520744 0.087717034 -0.014002266 -0.53266525
000040 6d c3 7d bc e3 01 bc be 6a 07 93 bc 61 b9 3c be
       -0.015488488 -0.3672019 -0.017947871 -0.18430091
000050 92 56 2c 3e f9 2b a3 be 50 89 67 3e e4 31 10 be
       0.16829899 -0.31869486 0.22610974 -0.14081532
000060 ee be 20 bd 2a 5d 51 be 07 13 f7 3d a3 ed 20 bd
       -0.039244585 -0.20445696 0.12064176 -0.039289128
000070 c9 a7 23 3e 20 a0 e3 3d f9 2e 3f 3c c7 b1 2e 3e
       0.15981974 0.11114526 0.011668914 0.17060004
000080 11 ed 48 3e c3 e4 c8 bb 7f 75 c3 bd 60 ec 80 bc
       0.19621684 -0.006130786 -0.09543895 -0.015737712
000090 d6 23 13 3e 0b 91 1f bd 40 ba d2 3d fb 6a bc bc
       0.14369139 -0.038956683 0.102894306 -0.023000231
0000a0 c8 53 4d be e5 b4 82 bd d9 65 80 3d a4 24 1e 3d
       -0.20051491 -0.06382159 0.06269426 0.038609162
0000b0 c8 fd 84 3e 15 2d 81 bd 08 75 a6 3e 2b 9a 4c bd
       0.2597487 -0.06307427 0.32511163 -0.049951714
0000c0 92 db fb bc 50 28 83 3e 5a 26 16 be 61 c7 2a 3e
       -0.030744348 0.25616693 -0.14663067 0.1667762
0000d0 ea 55 9a 3b 21 cb 3f bd bf d1 f9 3d 2d 33 82 bc
       0.004709949 -0.04682458 0.12198209 -0.015893543
0000e0 89 ca dd 3d 4f 83 a0 bd 41 88 c4 bd e5 be cc 3c
       0.10829646 -0.07837545 -0.09596301 0.02499337
0000f0 68 49 2e bc de 7a 00 be 44 80 aa bb 39 71 8c be
       -0.010637619 -0.1254687 -0.0052032787 -0.27430132
000100 ab 97 3b 3d 47 27 42 be 5d d4 ed 3d 9d 14 a8 3d
       0.04579894 -0.18960296 0.11612771 0.08207057
000110 c1 9f 4d be 2f be 1a bd 63 21 7a be d2 ce 30 bd
       -0.20080473 -0.03777903 -0.24426799 -0.04316599
000120 75 1b 5b bd 81 f2 97 3d df c4 7c be 1c 29 9f bc
       -0.053492982 0.07419301 -0.24684475 -0.019428782
000130 e5 a8 07 bd ad bf 92 3c 3e 3c 1b be 9c 02 02 bd
       -0.033120055 0.017913664 -0.151597 -0.03174077
000140 bc 28 9f 3e 1f ba 9b bd 6c 74 f4 3e 5b 89 db bc
       0.31085765 -0.07603859 0.47745073 -0.026798895
000150 9d fe e1 3d 83 45 43 bc e5 78 7c bd 6d 1b a8 3e
       0.11034892 -0.011918428 -0.06163873 0.32833424
000160 74 7d 5e 3e b8 d3 35 bd dc 96 2b 3e db 57 01 3d
       0.21727544 -0.044391364 0.16756767 0.031577926
000170 1e 81 a5 3d 1c 6e 18 3d 96 c5 17 3d 23 06 4b 3e
       0.08081268 0.037214383 0.037053667 0.1982656
000180 37 99 0e 3e f8 cd 62 bd cf 6e 9f bd 76 0b 94 3e
       0.13925634 -0.05537221 -0.07784807 0.28914994
000190 7d c6 36 be e8 94 43 bd 35 63 66 be 86 36 9b 3e
       -0.17849155 -0.04774943 -0.22498782 0.30315036
0001a0 33 ed 81 3e 9b 3a 89 3d 96 8e 94 bc 83 61 ec bc
       0.2537628 0.06700631 -0.018134397 -0.028855091
0001b0 be 3c 74 3d 60 97 43 be 86 19 06 bd a6 e8 06 be
       0.05962824 -0.19100714 -0.032739185 -0.13174686
0001c0 ac 42 d3 bd 49 76 3f 3d 74 a7 9a 3e 0e ed 43 3e
       -0.10315451 0.046743665 0.30205882 0.19133398
0001d0 9e e7 66 be 3b cd e0 bd 97 f2 d2 3d 8d 32 6a 3c
       -0.22549292 -0.109766446 0.103001766 0.014294279
0001e0 5c 1b 88 3e 8f 5b 0d be cf 16 28 bd fc 3f 06 3e
       0.26583374 -0.13804458 -0.041037377 0.13110346
0001f0 3f ec ce 3d c6 f6 f4 bd 0f 52 ba 3d 65 32 ab 3b
       0.10103654 -0.11961131 0.09097683 0.0052245134
000200 88 ed bc 3d be c3 f0 3d 17 fe a1 bc 33 46 95 3d
       0.09224993 0.11756085 -0.01977448 0.0728878

dense_21/bias f4 [64]
000000 d7 01 1b 3e 34 b0 32 3e cb 65 0c 3e 55 32 a5 be
       0.1513742 0.17450029 0.13710706 -0.32264963
000010 1f 71 d1 3d 52 72 77 3e 4e 62 23 bd dd 7b 75 bb
       0.10226654 0.24164703 -0.039888673 -0.0037457861
000020 ba db 84 be 03 22 7b 3e 2b 07 0f 3d d4 52 7f be
       -0.25948888 0.24524693 0.034918945 -0.2493394
000030 1e 17 17 bd 71 ff ad be 25 e2 e7 3d c1 80 4d 3d
       -0.03688728 -0.3398395 0.113224305 0.050171617
000040 22 64 a3 3e 48 22 81 3e f4 b9 f0 3e 90 42 47 3e
       0.31912333 0.25221467 0.4701687 0.19458985
000050 8c 71 87 be eb 98 c6 3d c8 a5 20 3e f5 f2 4b 3e
       -0.26453817 0.096971355 0.1568824 0.199169
000060 55 34 2b 3e 2b cd c9 bd cf 24 4a be 86 12 b3 3d
       0.16719182 -0.09853586 -0.19740604 0.087437674
000070 56 f3 3d 3e 44 50 cf 3d 02 aa 28 3e 7a 82 51 3e
       0.18549857 0.10122731 0.16471103 0.20459929
000080 4e cf 3d 3e 0b 40 73 bb 73 3d ff 3d 89 1a 1d 3d
       0.18536112 -0.003711703 0.124628924 0.038355384
000090 16 6b cd be 59 69 86 3d b0 8b 5b 3d 00 00 00 00
       -0.40120763 0.06563062 0.053600013 0.0
0000a0 9f 40 ef bc 17 fa 37 3d 18 d2 03 bd 44 18 ec 3e
       -0.029205618 0.04491624 -0.032182783 0.46112263
0000b0 bd 18 01 3e 33 e8 23 be f3 8f 92 bd ba c9 79 3d
       0.12607093 -0.16006546 -0.071563624 0.060983397
0000c0 df 71 d0 be 83 45 b9 3d a0 5e 81 3e 22 43 58 3e
       -0.40711877 0.090464614 0.25267506 0.21119359
0000d0 9b d1 a8 be 2c c0 70 3e 53 c5 9a 3e 54 3a 00 bd
       -0.32972416 0.23510808 0.3022867 -0.031305626
0000e0 fc 05 f3 bd 2f 02 92 3e 61 ee 97 be 49 76 71 be
       -0.11866376 0.2851729 -0.29674056 -0.23580278
0000f0 e8 a7 34 3d 27 8a 59 bc d4 ef 1d 3e 84 e5 17 bc
       0.04410544 -0.013277567 0.15423518 -0.009271029

dense_20/bias f4 [32]
000000 00 00 00 00 56 2b 2e 3e 47 08 ac 3c fb 62 a8 3d
       0.0 0.17008719 0.02100004 0.08222004
000010 00 00 00 00 28 6e d2 3d 73 4a d1 3c b5 aa ad 3e
       0.0 0.10274917 0.025548195 0.33919302
000020 99 30 d0 3e a7 df 15 be 2e 1b d0 be a8 a8 a2 3e
       0.40662077 -0.14636098 -0.40645736 0.317693
000030 9d a1 3b 3e e8 38 3c 3f 07 4e 3f 3e a4 c5 cb 3e
       0.1832337 0.7352433 0.18682109 0.39799225
000040 6e 32 96 3d 64 ed eb be 22 20 57 3e c2 c0 8c 3e
       0.073338374 -0.46079552 0.21008351 0.27490813
000050 27 1e 18 bf 73 28 1c be f1 ae df be 9c 46 0e 3e
       -0.5942101 -0.15249805 -0.43688157 0.13894123
000060 98 8a b3 be 00 00 00 00 23 6a 87 3d 00 00 00 00
       -0.35066676 0.0 0.06612041 0.0
000070 b3 d4 56 3e a9 37 49 3e 17 45 2f 3e 62 ea 65 be
       0.20979576 0.19650139 0.171162 -0.22452691

sequential_5/dense_20/MatMul f4 [32, 4]
000000 3a 33 15 be ee 31 8f be 6c 93 5d be d4 6e 1e be
       -0.14570323 -0.2796778 -0.21638268 -0.15471965
000010 61 08 5f 3e c3 99 29 bf 42 58 55 be ff cd 2c 3f
       0.2178054 -0.66250247 -0.20834449 0.67501825
000020 93 4c f1 3e 1f 2d b8 be 20 67 27 bc 40 5f 0c bf
       0.47128734 -0.35971925 -0.010217458 -0.5483284
000030 34 f1 e6 3d 87 c9 b7 3e ef d6 1a bf 93 a6 e2 3e
       0.112764746 0.3589594 -0.6048421 0.4426771
000040 54 b1 4b be e8 ac df bd 6b a8 a3 be 16 15 17 be
       -0.19891864 -0.10921651 -0.3196443 -0.14754137
000050 97 ab c1 3e 23 e8 5f 3e 7d 41 e9 be 4c be bd bd
       0.37826225 0.21865897 -0.45557776 -0.09264812
000060 d7 ed cd bc 9b f9 c9 3e 38 ff 45 bd eb 4c 1b 3e
       -0.025137825 0.39448246 -0.0483391 0.1516606
000070 fb 13 9b 3e ad 43 0f be 42 b0 d1 be d2 a0 04 bd
       0.3028868 -0.1399066 -0.40954787 -0.032379933
000080 23 c9 a9 3d 97 15 ad 3e af f9 b1 be a8 96 09 3d
       0.08290317 0.33805534 -0.34760806 0.033590943
000090 3f d4 8d be 6d c2 7e bd 56 ff a9 3e ba bf 10 be
       -0.27700993 -0.062197138 0.33202618 -0.14135638
0000a0 b9 45 88 be c1 7f a2 be ac 20 d2 3e df 32 59 3d
       -0.26615694 -0.31738093 0.41040552 0.05302703
0000b0 56 60 76 bd 29 e2 aa bd 75 0f 48 be 4b 8c e8 3e
       -0.060150467 -0.08343918 -0.19537146 0.45419535
0000c0 f6 19 b0 bd fc 99 65 3e b4 d2 16 be 35 71 0e 3f
       -0.08598702 0.22422022 -0.14728814 0.5564149
0000d0 0d 6a 19 bb 75 13 b8 be cb 22 de bd 31 65 44 3d
       -0.0023409158 -0.35952345 -0.1084648 0.047948066
0000e0 5f ea b5 3e eb 0c 04 bd 1f 23 6a be b9 35 49 be
       0.35530373 -0.032238882 -0.2286496 -0.196494
0000f0 f6 0b d3 be 6e 1b bb 3e 22 da eb bb 21 6c b4 3e
       -0.41220063 0.36544365 -0.0071976343 0.35238746
000100 0e 90 0e 3f aa 5d a6 be d0 5d 8c bd 6f ce dd bd
       0.5568856 -0.32493335 -0.06853831 -0.1083039
000110 08 d2 c6 3e 57 98 22 be ca da 18 3e 7d 50 c0 3d
       0.38832116 -0.15878426 0.14927211 0.09390352
000120 17 47 b1 3e 18 10 95 be 94 98 87 be f4 f3 49 3d
       0.3462455 -0.2911384 -0.26483595 0.049304917
000130 f4 d3 3a be 5f 4b 05 3f 7a 23 9d be 8b 2d ab be
       -0.18244916 0.5206813 -0.3069113 -0.33433184
000140 bd 1a c2 3e 05 8a 17 bf 6e e6 76 3e 1f 16 1b be
       0.37911025 -0.59194976 0.2411134 -0.15145157
000150 c1 d9 cd be 82 db ab 3e af e2 9b 3e eb ac 02 3e
       -0.40205196 0.3356591 0.30446383 0.12761275
000160 e7 7a ba 3e 16 e7 5f be f6 9e 31 3e f6 6d 92 be
       0.36421892 -0.21865496 0.17345795 -0.2859952
000170 a7 64 ae 3e cd 0d d2 bd e5 12 d8 be 2f f1 d4 3d
       0.34061167 -0.102565385 -0.42201915 0.103975646
000180 d8 6a ab 3e 46 ad 89 3e e9 2e c0 3d 15 b4 db 3e
       0.33479953 0.2689001 0.093839474 0.4291083
000190 f0 3d f3 bc 7e b6 06 be 5e 38 51 be d8 f3 25 bd
       -0.02969262 -0.13155553 -0.20431659 -0.04051575
0001a0 db f2 c0 be 9b a2 8c 3e 29 d1 b0 bd 45 40 34 be
       -0.37685284 0.27467808 -0.08633644 -0.17602642
0001b0 50 88 f6 bc b4 2f 8d be 0a 62 b4 be 43 c8 ba be
       -0.030094296 -0.27575457 -0.35231048 -0.36480913
0001c0 53 11 cb 3e eb fd 07 3f fd 39 6a be 1a 08 ba bc
       0.39661655 0.53121823 -0.22873683 -0.022708941
0001d0 50 77 e2 3c dd ef 05 bf 50 5b 0f 3e a8 db 26 bf
       0.027644783 -0.5231913 0.13999677 -0.6517892
0001e0 16 7b 93 be 3e e8 c0 3e 7d e8 8d be 26 61 61 bb
       -0.28804845 0.37677187 -0.27716437 -0.003439018
0001f0 fe ef aa 3d a5 c6 9c 3e c7 f4 04 3e 02 d0 0b bf
       0.08346556 0.30620304 0.12984 -0.5461427

sequential_5/dense_21/MatMul i1 [64, 32] scale=0.00921389 zero_point=0
000000 ef 31 e2 2f 18 06 ef 14 17 07 17 ee ef 52 e8 c8
       -0.15663613 0.4514806 -0.2764167 0.43305284 0.22113335 0.055283338 -0.15663613 0.1842778 0.21191947 0.06449723 0.21191947 -0.16585001 -0.15663613 0.755539 -0.22113335 -0.51597786
000010 0a e2 0b de ee f0 f6 fb 0f ef fc ef e0 18 08 e7
       0.0921389 -0.2764167 0.10135279 -0.31327227 -0.16585001 -0.14742224 -0.0921389 -0.04606945 0.13820834 -0.15663613 -0.03685556 -0.15663613 -0.29484448 0.22113335 0.07371112 -0.23034725
000020 18 3c 04 1b 04 f3 ff f3 34 1c 0c 69 2c 2d ca 2b
       0.22113335 0.5528334 0.03685556 0.24877504 0.03685556 -0.11978057 -0.00921389 -0.11978057 0.47912228 0.25798893 0.110566676 0.9674584 0.40541115 0.41462505 -0.49755007 0.39619726
000030 d8 df ec ec f0 0c f3 c8 07 fa 17 01 ae f8 25 04
       -0.3685556 -0.30405837 -0.1842778 -0.1842778 -0.14742224 0.110566676 -0.11978057 -0.51597786 0.06449723 -0.055283338 0.21191947 0.00921389 -0.755539 -0.07371112 0.34091392 0.03685556
000040 0d ff f6 0e 0a f3 e8 0c 1a f5 e1 22 ec 38 fd 18
       0.11978057 -0.00921389 -0.0921389 0.12899446 0.0921389 -0.11978057 -0.22113335 0.110566676 0.23956114 -0.10135279 -0.28563058 0.31327227 -0.1842778 0.51597786 -0.027641669 0.22113335
000050 ec ee 0e 5a ee e8 cd f3 dc 16 2c ec 0c 0d 33 e5
       -0.1842778 -0.16585001 0.12899446 0.8292501 -0.16585001 -0.22113335 -0.4699084 -0.11978057 -0.33170003 0.20270558 0.40541115 -0.1842778 0.110566676 0.11978057 0.4699084 -0.24877504
000060 04 03 fe f8 ea 32 eb 3e 18 0f 18 24 0a 01 e3 dd
       0.03685556 0.027641669 -0.01842778 -0.07371112 -0.20270558 0.4606945 -0.19349168 0.57126117 0.22113335 0.13820834 0.22113335 0.33170003 0.0921389 0.00921389 -0.2672028 -0.32248616
000070 ff 18 d5 07 02 07 fd 2f f5 0c f7 fb 02 1e 16 e6
       -0.00921389 0.22113335 -0.39619726 0.06449723 0.01842778 0.06449723 -0.027641669 0.43305284 -0.10135279 0.110566676 -0.08292501 -0.04606945 0.01842778 0.2764167 0.20270558 -0.23956114
000080 ec 1a eb 0f 10 e6 e1 0c 12 f5 f3 24 10 33 0c 0a
       -0.1842778 0.23956114 -0.19349168 0.13820834 0.14742224 -0.23956114 -0.28563058 0.110566676 0.16585001 -0.10135279 -0.11978057 0.33170003 0.14742224 0.4699084 0.110566676 0.0921389
000090 07 d3 e8 1e ce e7 cd 14 dc 01 03 14 0c 12 2f f5
       0.06449723 -0.41462505 -0.22113335 0.2764167 -0.4606945 -0.23034725 -0.4699084 0.1842778 -0.33170003 0.00921389 0.027641669 0.1842778 0.110566676 0.16585001 0.43305284 -0.10135279
0000a0 05 03 13 ea fe ef 0e 15 0c e8 f6 20 16 44 0e 1f
       0.04606945 0.027641669 0.17506391 -0.20270558 -0.01842778 -0.15663613 0.12899446 0.19349168 0.110566676 -0.22113335 -0.0921389 0.29484448 0.20270558 0.62654454 0.12899446 0.28563058
0000b0 10 c7 09 f0 d9 e9 e6 0e d1 ed 3a 07 ee 14 2f fd
       0.14742224 -0.5251917 0.08292501 -0.14742224 -0.3593417 -0.21191947 -0.23956114 0.12899446 -0.43305284 -0.17506391 0.5344056 0.06449723 -0.16585001 0.1842778 0.43305284 -0.027641669
0000c0 e5 27 07 0c 09 e7 11 dd eb e3 f5 64 34 ed de 14
       -0.24877504 0.3593417 0.06449723 0.110566676 0.08292501 -0.23034725 0.15663613 -0.32248616 -0.19349168 -0.2672028 -0.10135279 0.921389 0.47912228 -0.17506391 -0.31327227 0.1842778
0000d0 27 0c f0 fe fa cd 15 0b 18 16 df f5 0f e3 04 ea
       0.3593417 0.110566676 -0.14742224 -0.01842778 -0.055283338 -0.4699084 0.19349168 0.10135279 0.22113335 0.20270558 -0.30405837 -0.10135279 0.13820834 -0.2672028 0.03685556 -0.20270558
0000e0 ea f6 f7 0e 11 f4 f7 eb e6 0c e4 13 f5 10 12 ec
       -0.20270558 -0.0921389 -0.08292501 0.12899446 0.15663613 -0.110566676 -0.08292501 -0.19349168 -0.23956114 0.110566676 -0.25798893 0.17506391 -0.10135279 0.14742224 0.16585001 -0.1842778
0000f0 f6 e9 0f 10 ff e6 08 08 0e 00 ec 0d f3 f1 f7 f4
       -0.0921389 -0.21191947 0.13820834 0.14742224 -0.00921389 -0.23956114 0.07371112 0.07371112 0.12899446 0.0 -0.1842778 0.11978057 -0.11978057 -0.13820834 -0.08292501 -0.110566676

sequential_5/dense_22/MatMul i1 [132, 64] scale=0.015063002 zero_point=0
000000 f9 06 1b fb 19 25 ee 07 f5 f6 04 2a f9 f2 28 29
       -0.10544101 0.09037801 0.40670106 -0.075315006 0.37657505 0.5573311 -0.27113402 0.10544101 -0.16569301 -0.15063001 0.060252007 0.6326461 -0.10544101 -0.21088202 0.60252005 0.6175831
000010 02 18 12 0e ef 08 f2 02 fa 02 07 fc fd 01 28 04
       0.030126004 0.36151204 0.27113402 0.21088202 -0.25607103 0.120504014 -0.21088202 0.030126004 -0.09037801 0.030126004 0.10544101 -0.060252007 -0.045189004 0.015063002 0.60252005 0.060252007
000020 30 f9 f6 f4 01 ef 17 00 06 1c 0c 0f 1f ec 05 1c
       0.7230241 -0.10544101 -0.15063001 -0.18075602 0.015063002 -0.25607103 0.34644905 0.0 0.09037801 0.42176405 0.18075602 0.22594503 0.46695307 -0.30126002 0.075315006 0.42176405
000030 ef 0d 09 0b fc 2d 21 08 e7 08 f0 f5 04 0b 04 ff
       -0.25607103 0.19581902 0.13556701 0.16569301 -0.060252007 0.6778351 0.49707904 0.120504014 -0.37657505 0.120504014 -0.24100803 -0.16569301 0.060252007 0.16569301 0.060252007 -0.015063002
000040 f9 f8 00 03 06 f5 f7 f8 f7 05 fb 03 05 00 04 fe
       -0.10544101 -0.120504014 0.0 0.045189004 0.09037801 -0.16569301 -0.13556701 -0.120504014 -0.13556701 0.075315006 -0.075315006 0.045189004 0.075315006 0.0 0.060252007 -0.030126004
000050 fd ff f9 fa 06 05 fa 04 f9 fa 08 f7 f8 f7 f6 ff
       -0.045189004 -0.015063002 -0.10544101 -0.09037801 0.09037801 0.075315006 -0.09037801 0.060252007 -0.10544101 -0.09037801 0.120504014 -0.13556701 -0.120504014 -0.13556701 -0.15063001 -0.015063002
000060 f7 04 f6 09 05 04 f7 fb 08 fc 01 0b 08 f5 f5 fe
       -0.13556701 0.060252007 -0.15063001 0.13556701 0.075315006 0.060252007 -0.13556701 -0.075315006 0.120504014 -0.060252007 0.015063002 0.16569301 0.120504014 -0.16569301 -0.16569301 -0.030126004
000070 f2 fc f8 ff fd 00 02 02 f6 f3 f7 01 f7 f8 f8 0b
       -0.21088202 -0.060252007 -0.120504014 -0.015063002 -0.045189004 0.0 0.030126004 0.030126004 -0.15063001 -0.19581902 -0.13556701 0.015063002 -0.13556701 -0.120504014 -0.120504014 0.16569301
000080 09 e9 19 08 15 29 f4 08 f8 ff 03 d2 f8 fc 00 1c
       0.13556701 -0.34644905 0.37657505 0.120504014 0.31632304 0.6175831 -0.18075602 0.120504014 -0.120504014 -0.015063002 0.045189004 -0.6928981 -0.120504014 -0.060252007 0.0 0.42176405
000090 f6 17 f6 07 f7 f6 05 03 0a 07 03 05 fb fd 1b fd
       -0.15063001 0.34644905 -0.15063001 0.10544101 -0.13556701 -0.15063001 0.075315006 0.045189004 0.15063001 0.10544101 0.045189004 0.075315006 -0.075315006 -0.045189004 0.40670106 -0.045189004
0000a0 2d 00 0a f4 02 11 1b 05 0c 1a 00 e5 0c f7 05 04
       0.6778351 0.0 0.15063001 -0.18075602 0.030126004 0.25607103 0.40670106 0.075315006 0.18075602 0.39163804 0.0 -0.40670106 0.18075602 -0.13556701 0.075315006 0.060252007
0000b0 09 0f 08 f5 0b 25 0e 0c 07 14 fa f9 03 f9 e9 f5
       0.13556701 0.22594503 0.120504014 -0.16569301 0.16569301 0.5573311 0.21088202 0.18075602 0.10544101 0.30126002 -0.09037801 -0.10544101 0.045189004 -0.10544101 -0.34644905 -0.16569301
0000c0 0a ee dd f6 ce 0d 03 05 04 00 f2 ed 04 09 0f ee
       0.15063001 -0.27113402 -0.52720505 -0.15063001 -0.7531501 0.19581902 0.045189004 0.075315006 0.060252007 0.0 -0.21088202 -0.28619704 0.060252007 0.13556701 0.22594503 -0.27113402
0000d0 02 e7 28 17 06 ec ff 0b 01 fc f3 01 07 03 02 23
       0.030126004 -0.37657505 0.60252005 0.34644905 0.09037801 -0.30126002 -0.015063002 0.16569301 0.015063002 -0.060252007 -0.19581902 0.015063002 0.10544101 0.045189004 0.030126004 0.52720505
0000e0 f0 09 f1 f5 f3 04 07 fd 02 e8 f7 38 d4 03 f9 cd
       -0.24100803 0.13556701 -0.22594503 -0.16569301 -0.19581902 0.060252007 0.10544101 -0.045189004 0.030126004 -0.36151204 -0.13556701 0.8435281 -0.66277206 0.045189004 -0.10544101 -0.7682131
0000f0 f3 08 06 0f ef 14 24 f6 04 08 f8 f1 14 07 f8 00
       -0.19581902 0.120504014 0.09037801 0.22594503 -0.25607103 0.30126002 0.54226804 -0.15063001 0.060252007 0.120504014 -0.120504014 -0.22594503 0.30126002 0.10544101 -0.120504014 0.0

sequential_5/dense_23/MatMul f4 [6, 132]
000000 9e 62 76 3d 87 f8 16 be 7d 40 55 3e 5c ae a0 bf
       0.060152642 -0.14743243 0.20825382 -1.255321
000010 80 65 08 3e a4 a0 28 be d5 bb 05 3c 82 b4 da be
       0.13319969 -0.1646753 0.008162458 -0.42715842
000020 e2 d5 fa bb f0 cc 3b 3e 5d 96 91 bd 3c 7f b5 3d
       -0.0076548913 0.18339896 -0.07108758 0.08862159
000030 54 56 b5 3e 4d b8 b3 bf 80 16 3d 3e f6 dd ca bf
       0.35417426 -1.4040619 0.18465614 -1.5848987
000040 e7 cd 31 3d f3 c8 09 c0 e9 2b 02 bf 89 54 10 be
       0.043409254 -2.15289 -0.5084825 -0.14094748
000050 21 9d 03 3e 61 dd e9 bc c4 d5 ac 3d 03 6d 95 bf
       0.12852909 -0.028547945 0.0843921 -1.1673893
000060 65 26 f8 be cd 50 48 bf ec 20 72 bf 23 81 f3 bc
       -0.48466793 -0.7824829 -0.94581485 -0.029724663
000070 03 ec 9e 3c b1 fb 5b 3b b2 d8 05 bf 69 ea 8f be
       0.019399649 0.0033566768 -0.52283776 -0.28108528
000080 6a 2d 4b 3c a1 69 11 3d 84 e5 cd bd 3d 12 14 be
       0.012400964 0.035501126 -0.10053542 -0.14460082
000090 93 87 80 3d 47 a5 16 be 6e 8e d0 3d 73 bf 89 3e
       0.06275859 -0.14711486 0.10183416 0.26903877
0000a0 c4 a1 1c c0 27 16 ae 3e f3 f9 11 be 66 94 05 3d
       -2.4473734 0.34001276 -0.14255504 0.032612227
0000b0 66 d2 31 3e 7f 2c 84 3d ca ca 5f 3e cd a2 c5 bd
       0.17365417 0.064537995 0.21854702 -0.096501924
0000c0 2b 27 56 3d 72 a3 30 3e ab 22 12 bf 0c 5c eb 3d
       0.052283447 0.1724985 -0.5708415 0.11492166
0000d0 94 b9 2b 3e 68 41 cb bc 34 7d 9e 3d de 3d 45 be
       0.16770011 -0.024811462 0.07738724 -0.19261882
0000e0 b3 40 fc 3d 31 14 0e bf 70 ca 62 3f 28 39 8b 3d
       0.12317028 -0.5549956 0.88590145 0.06798011
0000f0 26 71 20 be 10 e7 e9 bb 5a b4 c4 3e 0d 5e 40 c0
       -0.15668163 -0.0071381405 0.38418847 -3.0057404
000100 52 d3 aa 3d f0 68 82 3f 27 fd f5 3d 20 b1 81 3d
       0.083410874 1.0188274 0.120111756 0.06332612
000110 07 6a 12 bf 07 e2 5d 3e 4f 63 ff bf c0 6a 8f bd
       -0.57193035 0.21668254 -1.9952182 -0.07002783
000120 53 9e 19 3e fa 3e 2f 3c ff 0c 07 bf ce 37 13 be
       0.15001802 0.010696167 -0.52754205 -0.14376757
000130 25 37 4d bf a9 61 8b 3e 2c 97 0e 3c eb 3f c3 3d
       -0.8016227 0.27222946 0.008703034 0.09533676
000140 c0 25 f7 3d c1 3b 06 3e 13 a1 fd 3d f1 1d 82 bf
       0.12067747 0.13108732 0.12384238 -1.0165387
000150 c9 aa 05 be 98 cf 31 be 98 95 0b 3c 45 a8 48 3e
       -0.1305343 -0.17364347 0.008519553 0.1959544
000160 27 a2 14 3e 87 ba 45 be 08 cf e9 3d 44 63 9e bd
       0.14514981 -0.19309436 0.11416441 -0.07733777
000170 a5 4b b3 3d 9b 5d c1 bf bb 91 40 bd 79 f1 f0 bf
       0.087546624 -1.5106691 -0.04701398 -1.8823692
000180 70 2b a7 3b eb cd e4 bc 11 75 eb 3d 04 f8 e4 3c
       0.0051016137 -0.02793022 0.11496938 0.027950294
000190 95 62 ca b9 4d b4 20 be 37 f4 3c bd a0 9e b1 be
       -0.00038601892 -0.1569378 -0.04613134 -0.34691334
0001a0 5c 43 5c 3e 9a 14 99 be e0 bd f4 3b e0 fe 6f bd
       0.2151007 -0.2989853 0.007468924 -0.058592677
0001b0 c1 40 e8 3b 04 17 25 be 61 83 10 be b9 db 12 be
       0.0070877974 -0.16122061 -0.14112617 -0.1434163
0001c0 4c a7 3c bf 4c b3 63 3e b1 67 e9 3d 1a 64 ec 3d
       -0.73692775 0.22236365 0.11396731 0.1154253
0001d0 9e 38 17 be fb 25 33 bf cc af fa 3d e7 26 85 bd
       -0.14767691 -0.6997983 0.12240562 -0.06501561
0001e0 82 fb 5f 3e 98 1a 51 bf ef 05 1a be 6e 81 7f bd
       0.21873286 -0.81681204 -0.15041326 -0.062379293
0001f0 1a 76 65 bf 44 b9 be ba 99 68 f4 be b9 cf 9a bf
       -0.89633334 -0.0014551063 -0.47736052 -1.2094642
000200 ba d3 31 3e 47 b7 fe bf f2 78 37 3e 34 3d 34 3e
       0.17365924 -1.9899682 0.1791723 0.17601472
000210 b5 fd 57 bd db ad 00 be a7 b7 52 3e c9 14 c9 3c
       -0.05273219 -0.1256632 0.2057787 0.024546044
000220 c3 ed 2b 3e d1 f8 1a 3c bf d1 27 be be 83 27 3e
       0.16789918 0.0094587365 -0.16388606 0.1635885
000230 71 fb 70 3d c6 47 34 3e 06 7a 8f 3d 24 c9 04 3e
       0.058833543 0.17605504 0.07005696 0.12967354
000240 01 87 c9 be e6 bc 92 be 50 4e a7 bc c9 19 82 be
       -0.39360812 -0.28659743 -0.020423084 -0.25410298
000250 4d 07 27 be 71 f1 a4 be de 45 bf be f6 dd f6 bd
       -0.16311379 -0.32215455 -0.37357992 -0.120540544
000260 32 d5 86 bd 26 99 d5 bd a6 fa 60 3e 58 d9 d6 bc
       -0.065836325 -0.10429601 0.21970615 -0.026226684
000270 8a c1 b6 be d3 29 54 be c6 db 3d be ff 94 d4 bb
       -0.35694534 -0.2071908 -0.18540868 -0.0064874883
000280 f7 ff a0 3e eb 86 11 3e 9d c6 93 bd 63 af 7d 3e
       0.31445286 0.14211623 -0.07215617 0.24773936
000290 63 18 cc bc 3c 6f 92 3c 4d 3a 37 bd ea d7 3b be
       -0.024913972 0.017875306 -0.044733334 -0.18344083
0002a0 fb 92 fd 3d 3b fa 54 be dd 9f 86 be d7 0b 71 3e
       0.1238155 -0.2079858 -0.2629384 0.23539673
0002b0 6c 4a 24 bc 2a 34 e4 be 8a 05 8f 3d 8c 9c c7 bb
       -0.010027509 -0.44571048 0.06983478 -0.00609166
0002c0 9c 66 59 3e fa c3 6d 3c 50 18 6c 3e e9 ad db bd
       0.21230549 0.0145120565 0.2305615 -0.1072653
0002d0 c7 89 1d be 0c 3b 2c 3e 28 55 c9 be ba 1f 10 3e
       -0.15384589 0.168194 -0.39322782 0.14074603
0002e0 50 72 ac 3d 63 84 21 be ed 93 84 3d 9d a5 58 bf
       0.08420241 -0.15773158 0.06473527 -0.84627706
0002f0 22 fe 96 be 2d e0 4e be c6 c4 d4 be d1 aa b5 be
       -0.29490763 -0.20202704 -0.41556376 -0.35481885
000300 c8 48 92 3d e2 6c f6 bb 61 0f 16 bf 46 6f c0 be
       0.07142788 -0.007520304 -0.58617216 -0.37584895
000310 7e cc ea bd 38 fe 89 bf e8 34 35 3d 1c f4 13 3e
       -0.11464785 -1.0780706 0.04423991 0.14448589
000320 64 11 f0 bd e4 c6 6e 3e 14 8a 07 be 03 3a 13 3e
       -0.11722067 0.23318058 -0.13236266 0.14377598
000330 7b 13 06 be 58 69 92 bc 7e 9b f7 bd fb 88 be 3a
       -0.13093369 -0.017872497 -0.12090205 0.0014536673
000340 eb 03 d1 bc 00 f2 aa 3e 24 24 90 bd 2a 0d 65 be
       -0.025514564 0.33387756 -0.07038143 -0.22368303
000350 ec a0 e3 3d 66 49 04 3e cc f0 04 3e b2 f2 53 bf
       0.11114678 0.12918624 0.12982482 -0.827922
000360 3f 64 d2 be 40 3d 0e bc 12 f6 74 bd 8a 7b 06 3e
       -0.41092107 -0.008681595 -0.059804983 0.13133064
000370 43 fe 54 3e 28 ea 88 3d b2 8f 1b 3d 5e 7f a3 3c
       0.20800118 0.06685287 0.037978835 0.019958194
000380 d7 9f 3e 3e 48 ec 8b bf ed 96 4f be 01 f2 f8 3d
       0.18615662 -1.0931482 -0.20272417 0.121555336
000390 ab 0f 81 3e 1a 81 70 bb 7c 29 ad be 26 74 0c 3e
       0.25207266 -0.0036698044 -0.33820713 0.13716182
0003a0 6c f7 e3 bd ac c6 41 be 2a 62 b3 bd 93 76 e5 3d
       -0.11131176 -0.18923444 -0.08758958 0.11204257
0003b0 52 60 4d 3e e2 a5 bb bc 5e 28 52 bc 36 58 2b bd
       0.20056275 -0.022906248 -0.012827007 -0.04183217
0003c0 19 5c 2e 3d c7 7e 14 be 3f e1 17 be 6c ac bb bd
       0.0425683 -0.14501487 -0.14832018 -0.09163746
0003d0 98 7d e4 be df b9 40 3e 17 bd e6 3d d2 e1 48 3d
       -0.4462707 0.18820904 0.11266535 0.049043484
0003e0 c2 b8 01 be 2d 5a db 3d 76 37 98 3e ec 61 be be
       -0.12668136 0.10710559 0.29729813 -0.37184083
0003f0 eb f1 1f 3e f6 4e ba 3d 63 91 01 be 45 89 9e 3e
       0.15619628 0.09097092 -0.12653117 0.30964103
