app/src/main/ml/pedigree_male_model_tflite_3.tflite (tflite, 39712 bytes, 14 tensors)

dense_31/bias f4 [4]
0	0x3d518d3b	0.05116008
1	0xbd914fee	-0.070953235
2	0x3d907400	0.07053375
3	0xbddb6462	-0.10712506

dense_30/bias f4 [128]
0	0x3dbb507e	0.09146212
1	0xbd1bf9eb	-0.038080137
2	0xbc078db7	-0.008273534
3	0x3c0e7b2f	0.008696361
4	0x3d06a33c	0.032870516
5	0xbd1da41c	-0.038486585
6	0x3e7ba7a1	0.24575664
7	0xbccdf5ec	-0.025141679
8	0x3e4225ee	0.18959782
9	0x3ba5e4bd	0.005062668
10	0x3dc1bc7f	0.09459781
11	0x3e420a61	0.18949272
12	0x3cdce24a	0.026963372
13	0xbce82066	-0.028335761
14	0x3e2ed2bf	0.17072581
15	0xbd86a3f3	-0.065742396
16	0xbcfd8418	-0.030946776
17	0x3d2177a8	0.039420754
18	0x3dea0d3f	0.11428308
19	0x3c9c1bab	0.019056162
20	0xbdb868d2	-0.09004368
21	0x3d9fe9dd	0.07808278
22	0xbd5adb97	-0.053432073
23	0xbd54fc69	-0.05199853
24	0xbd932f40	-0.071867466
25	0xbd091c6a	-0.033474363
26	0xbd0d5fe0	-0.03451526
27	0xbd89f7bb	-0.06736704
28	0xbca995e1	-0.02070135
29	0x3e452393	0.19251852
30	0x3d858ef3	0.06521406
31	0x3e04174e	0.12899515
32	0xbd8f075d	-0.06983826
33	0x3d9c97d5	0.07646147
34	0xbc766be6	-0.015040373
35	0xbd32a8a1	-0.04361785
36	0x3e08c736	0.13357243
37	0xbd16ddb5	-0.03683253
38	0xbdc63bde	-0.096793875
39	0x3dfa4394	0.12219921
40	0x3c41b4af	0.0118228635
41	0xbc62e730	-0.013849065
42	0x3c817e7a	0.015807379
43	0x3cf96f3d	0.03044855
44	0xbd787ffa	-0.060668923
45	0xbd8acb3d	-0.06777046
46	0xbd667a81	-0.056269173
47	0xbd4e77d6	-0.050407253
48	0x3bf70094	0.0075379107
49	0xbc9234f7	-0.017847521
50	0xbc980407	-0.018556608
51	0xbc418f98	-0.011814021
52	0x3d1e7fd9	0.038696144
53	0xbc34b853	-0.011030274
54	0x3d6cf6e2	0.057852633
55	0xbc50603b	-0.012718256
56	0xbdbf29fd	-0.093341805
57	0x3e1dbc9a	0.15403977
58	0xbdc198bd	-0.09452961
59	0xbcd6eefd	-0.026237005
60	0xbda1a538	-0.07892841
61	0x3dba2dd5	0.09090773
62	0xbda87466	-0.08225326
63	0xbd604d50	-0.05476123
64	0xbcfa0f68	-0.030524924
65	0x3e150de1	0.14556076
66	0xbd1337ef	-0.035942014
67	0x3caeee7f	0.021353958
68	0xbb855147	-0.004068527
69	0x3d52e053	0.051483463
70	0xbd72c921	-0.059273843
71	0xbe257c40	-0.16160679
72	0xbd3d8d00	-0.046277046
73	0x3cb8ca11	0.02255729
74	0xbd3849ce	-0.04499226
75	0xbd4be57e	-0.049779408
76	0xbc8f014c	-0.017456673
77	0xbcb72c45	-0.022359977
78	0xbc9b78be	-0.018978473
79	0xbdeee2af	-0.1166433
80	0x3d051d51	0.03249866
81	0xbdddbd01	-0.10827065
82	0xbd6dc477	-0.05804869
83	0x3d6dccab	0.058056515
84	0xbb57f395	-0.0032951583
85	0x3bc556d4	0.0060223136
86	0x3c8ba08e	0.017044332
87	0xbd163154	-0.036668137
88	0xbdb326a4	-0.087476045
89	0xbd4a322b	-0.04936425
90	0xbcb611a2	-0.022225205
91	0xbd3c3e6b	-0.045957964
92	0x3da798cd	0.08183441
93	0xbcd628df	-0.026142536
94	0xbc905fd2	-0.017623816
95	0x3e08a896	0.1334556
96	0xbe027f22	-0.1274381
97	0xbd383e10	-0.044981062
98	0x3e20deee	0.15710041
99	0xbd4c956c	-0.049947187
100	0x3e0b4088	0.13598835
101	0xbdaac720	-0.08338761
102	0x3e3d4eb9	0.18487062
103	0xbd457042	-0.04820276
104	0xbdd5eed0	-0.104459405
105	0xbd8d8f4f	-0.069120996
106	0x3b9bfe29	0.004760523
107	0xbdd8811b	-0.105715
108	0x3d167352	0.03673107
109	0xbd1c59b5	-0.03817149
110	0xbd526e25	-0.051374573
111	0x3de0abff	0.10970306
112	0xbd7e26f4	-0.062048867
113	0x3d24c6e7	0.04022875
114	0xbd11b50e	-0.035573058
115	0x3d71f4c5	0.05907132
116	0x3e2c455e	0.16823336
117	0x3e6290e0	0.22125578
118	0x3d856f0e	0.065153226
119	0xbbd924d8	-0.0066267066
120	0x3e2680f9	0.16260137
121	0x3ce94977	0.028477414
122	0xbd5340b8	-0.051575392
123	0xbd986f5d	-0.07443116
124	0xbd84b74b	-0.06480273
125	0xbdc829d3	-0.09773602
126	0x3e648f3b	0.22320263
127	0xbdc96b98	-0.09834975

dense_29/bias f4 [128]
0	0x3c42d08f	0.011890545
1	0xbe2c1d7a	-0.1680812
2	0xbdfb66f4	-0.12275496
3	0x3b1bf9e5	0.0023800072
4	0xbd408134	-0.046998218
5	0xbd8e5a1c	-0.06950781
6	0xbd0fe992	-0.03513486
7	0x3ba9a38a	0.005176966
8	0x3db48478	0.08814329
9	0xbd5546dc	-0.05206953
10	0xbd251dce	-0.040311627
11	0x3db45a2b	0.08806261
12	0x3e618a3b	0.22025387
13	0xbd56c34d	-0.052432347
14	0x3ce8a5d1	0.02839938
15	0x3d9826ac	0.07429251
16	0xbcd37618	-0.025813147
17	0xbcd4beb3	-0.025969839
18	0xbc392206	-0.011299616
19	0xbd1dfea8	-0.038572937
20	0x3d474d1e	0.04865753
21	0x3dd13e55	0.10216967
22	0x3e759f68	0.2398659
23	0xbd552c15	-0.052043993
24	0x3d672ced	0.05643933
25	0x3ddfc468	0.109261334
26	0x3ddfdaff	0.10930442
27	0xbdc01d55	-0.09380595
28	0x3dad84e9	0.08472616
29	0xbd5fb57f	-0.054616448
30	0xbdfba14b	-0.122866236
31	0xbe5f968c	-0.21834773
32	0x3e1205ec	0.14260072
33	0xbcf1a2a0	-0.029496491
34	0xbd4ef7c0	-0.05052924
35	0x3a6f0ba6	0.0009118862
36	0xbcc77a85	-0.024350414
37	0x3e08b647	0.13350783
38	0x3d776c03	0.060405742
39	0x3da8003e	0.08203171
40	0xbb41d97a	-0.002957909
41	0x3d4d6fbc	0.050155386
42	0xbd7226c7	-0.059119012
43	0x3ca5c39b	0.020234874
44	0xbd3fc6a5	-0.0468203
45	0x3d08311f	0.03324997
46	0x3e244cd8	0.16044939
47	0xbd4fd866	-0.050743483
48	0xbc0943c5	-0.008377974
49	0x3dee793d	0.11644218
50	0x3da57588	0.08079058
51	0x3e39f169	0.18158497
52	0xbe5737d4	-0.2101739
53	0xbd839bcf	-0.064262025
54	0x3d1fa687	0.038977172
55	0xbbf9de83	-0.0076254024
56	0xbce7d6b9	-0.02830063
57	0x3db393b9	0.0876841
58	0xbdd8bc4a	-0.10582788
59	0x3dc35333	0.09537353
60	0x3d8d3585	0.06894974
61	0xbd867a71	-0.065663226
62	0x3df409c7	0.119159274
63	0xbd11039f	-0.035403844
64	0xbd693220	-0.05693257
65	0x3beed9b5	0.0072891363
66	0x3d9dbc1f	0.07701897
67	0xbd0d281a	-0.034462072
68	0x3c9e2516	0.019304793
69	0x3dd75d3c	0.1051583
70	0xbd1a23cc	-0.037631795
71	0x3daa1e6c	0.08306584
72	0x3e2c7eb5	0.1684521
73	0xbca7076d	-0.020389283
74	0xbe2ef4bd	-0.17085548
75	0x3c042f6e	0.008067949
76	0x3c5b9e53	0.013404447
77	0xbe61edc4	-0.22063357
78	0x3d3ca54a	0.04605607
79	0x3c3a2904	0.011362318
80	0xbd80ce22	-0.06289317
81	0xbc3f8d37	-0.011691383
82	0x3aae9cb4	0.0013321848
83	0xbdb1fdf2	-0.08691014
84	0x3dc24de0	0.0948751
85	0xbd5df3e2	-0.054187663
86	0xbc88da97	-0.016705794
87	0x3dcb94e3	0.09940507
88	0x3daf33e5	0.0855482
89	0xbd5b4d8c	-0.05354075
90	0x3ca07fc6	0.019592177
91	0xbd180808	-0.037117034
92	0xbe274536	-0.16334996
93	0x3df764e1	0.12079788
94	0xbd8acc5c	-0.0677726
95	0x3e65422f	0.22388528
96	0x3dccd52b	0.10001596
97	0x3e146c1a	0.14494362
98	0x3ce818ae	0.02833208
99	0x3d0e5f26	0.03475871
100	0xbc7391bb	-0.014866288
101	0xbd0e4c75	-0.034740884
102	0x3d92b8fe	0.07164191
103	0x3e0956bf	0.13411997
104	0xbdc12ce4	-0.0943239
105	0x3dd6c331	0.104864486
106	0x3d5d22bc	0.053988203
107	0xbd178eb5	-0.03700133
108	0x3d537cf9	0.051632855
109	0xbd00b06d	-0.031418253
110	0xbd78f4b7	-0.060780253
111	0x3c5383f5	0.012909879
112	0xbe1e5836	-0.15463337
113	0xbd59ce95	-0.053175528
114	0x3c3317c6	0.010930961
115	0xbd475d8f	-0.04867321
116	0xbdb79790	-0.08964455
117	0xbc8f0f07	-0.01746322
118	0xbd27eb2d	-0.040995765
119	0xbd3d6d19	-0.04624662
120	0x3d6b4a3b	0.05744384
121	0xbd48c87d	-0.049019326
122	0xbc2e34c7	-0.0106327
123	0xbcf9429c	-0.03042727
124	0x3e26533d	0.1624269
125	0xbdaf0325	-0.08545522
126	0xbd99852a	-0.07496102
127	0xbcfa1fca	-0.030532736

dense_28/bias f4 [64]
0	0x3d64d3a1	0.055865888
1	0x3dc9d3dc	0.09854862
2	0xbdf74448	-0.120735705
3	0xbd8c6fc4	-0.06857255
4	0x3d0c1c4f	0.034206685
5	0xbe2dba87	-0.16965686
6	0x3da8a96f	0.08235442
7	0xbd1bf85a	-0.038078643
8	0x00000000	0.0
9	0x3d629f6a	0.05532781
10	0xbda030a9	-0.07821781
11	0xbddf9502	-0.10917093
12	0xbd42ba64	-0.047541037
13	0x3bd882ce	0.00660739
14	0xbd327b2b	-0.043574493
15	0xbcfb117f	-0.030647991
16	0xbd112dab	-0.035443943
17	0x3df979e7	0.12181454
18	0xbca5935d	-0.02021187
19	0xbc5d76b3	-0.01351707
20	0x3d026c74	0.03184171
21	0x3d37bac1	0.044855837
22	0xbd40b9af	-0.04705208
23	0xbc0b327c	-0.008495923
24	0xbdadf907	-0.08494764
25	0xbe382910	-0.17984414
26	0xbe22bf7e	-0.15893361
27	0xbdca79c8	-0.09886509
28	0x3ded7dbf	0.1159625
29	0xbbe9d701	-0.007136226
30	0xbd3b55f2	-0.04573626
31	0x3e431bdc	0.19053596
32	0x3ca9b488	0.020715967
33	0x3da33b34	0.079702765
34	0xbd604b59	-0.054759357
35	0x3e5f835e	0.21827456
36	0x3d9d0154	0.07666269
37	0x3e43ebfb	0.19132988
38	0xbd2ddef2	-0.042448945
39	0x3dd89279	0.105748124
40	0xbb619ae0	-0.0034424588
41	0x3daf4ccd	0.085595705
42	0xbd73538a	-0.05940584
43	0xbdc220af	-0.0947889
44	0x3d63bed3	0.055601906
45	0x3d0c1918	0.03420362
46	0x3d6fe7b8	0.058570594
47	0x3dd4ac5c	0.103844374
48	0x3d54f8c0	0.05199504
49	0xbbcf7bd5	-0.0063319006
50	0x3dcf32c9	0.101171084
51	0xbbfb500e	-0.0076694554
52	0x3e300ae3	0.17191653
53	0xbd5f814b	-0.054566663
54	0x3da33a43	0.07970097
55	0xbcfffb6c	-0.031247817
56	0x3dafbcd8	0.08580941
57	0x3cf43a5e	0.029812988
58	0xbdee0b81	-0.11623288
59	0xbe37a450	-0.17933774
60	0x3e0006d8	0.1250261
61	0xbd80050b	-0.06250962
62	0x3e19d2cb	0.15021817
63	0xbcde0d59	-0.027105974

dense_27/bias f4 [64]
0	0xbca79f01	-0.020461561
1	0x3d23936f	0.039935526
2	0xbe5702ba	-0.20997134
3	0xbd3b5730	-0.045737445
4	0xbc6c3efd	-0.014419314
5	0xbcd2fac1	-0.025754334
6	0x3e2e30a9	0.1701075
7	0x3deba341	0.115057476
8	0xbd3950af	-0.04524296
9	0xbd170f45	-0.036879797
10	0xbd0c8745	-0.03430869
11	0xbe0fced5	-0.14043744
12	0x3d5e84e8	0.054325968
13	0xbe04c412	-0.1296542
14	0x3c6b5ccf	0.014365389
15	0xbdbf52f8	-0.09341997
16	0xbc73c281	-0.014877916
17	0x3cc6e4ab	0.02427896
18	0xbd615f22	-0.055022366
19	0xbe1a5f83	-0.15075497
20	0x3cc4d005	0.024024973
21	0x3ddefbad	0.10887847
22	0xbcc3fec1	-0.023925187
23	0x3e0fe077	0.1405047
24	0xbe7a7b00	-0.24460983
25	0xb9f17470	-0.00046053855
26	0xbe0512c6	-0.12995443
27	0x00000000	0.0
28	0xbd5244fb	-0.051335316
29	0xbe60b296	-0.21943125
30	0x3d8cb4e6	0.06870441
31	0x3c076582	0.008263947
32	0x3e0385c9	0.12844004
33	0x3a98f9d0	0.001167113
34	0x3c20c6bf	0.00981301
35	0xbd0ec548	-0.03485611
36	0xbe73541d	-0.23762555
37	0xbc38ac41	-0.011271537
38	0xbd4925b8	-0.049108237
39	0x3d0f5c4b	0.035000127
40	0xbe691e77	-0.22765528
41	0xbcaaf131	-0.020866962
42	0x3e35deb2	0.17760733
43	0xbe026bbf	-0.12736414
44	0xbcc22341	-0.023698451
45	0xbd94df14	-0.07269111
46	0x3e7e5beb	0.24839751
47	0xbc6fc9cb	-0.014635514
48	0xbbcace57	-0.0061891484
49	0x3d9c60fc	0.07635686
50	0x3e5371aa	0.20648828
51	0xbd23f8a7	-0.040032055
52	0x3e787a64	0.24265438
53	0xbd0ec493	-0.034855437
54	0xbe257f03	-0.16161732
55	0x3d27489b	0.040840726
56	0x3e3cadc4	0.18425661
57	0xbe14fa2a	-0.14548555
58	0x00000000	0.0
59	0xbc7f963c	-0.0155997835
60	0xbe0e819d	-0.13916631
61	0x00000000	0.0
62	0x3e8fab3d	0.28060332
63	0x3e014b62	0.12626413

dense_26/bias f4 [32]
0	0xbdd14453	-0.1021811
1	0xbe6e355b	-0.23262541
2	0x3bc19467	0.0059075835
3	0xbd16a103	-0.036774646
4	0x3c38b844	0.011274401
5	0xbcee09af	-0.029057352
6	0x3d3e2657	0.046423282
7	0x3dd2568d	0.102704145
8	0x3cd2678e	0.025684144
9	0x3e6d2e2e	0.23162147
10	0x3dbcf641	0.09226657
11	0xbd580a48	-0.05274418
12	0x3d99bc84	0.075066596
13	0xbd1507f8	-0.036384553
14	0x3de544a3	0.11194732
15	0xbe5e02f5	-0.21680816
16	0x3e51c58f	0.20485519
17	0xbe4a5ec7	-0.19762717
18	0x00000000	0.0
19	0xbd6e3448	-0.058155328
20	0x3ccc2e06	0.02492429
21	0x3d81655f	0.06318163
22	0xbe92346b	-0.28555617
23	0x3ccece6f	0.02524492
24	0x3d56d10a	0.05244545
25	0x3dbd7fca	0.092528895
26	0xbd39a382	-0.04532195
27	0xbcda9b91	-0.026685508
28	0x3d77a0ba	0.060456015
29	0xbde82a1d	-0.113361575
30	0xbd39f3b7	-0.04539844
31	0x3e04d8ec	0.12973374

dense_25/bias f4 [32]
0	0x3e1e0743	0.15432458
1	0x3d8c42c7	0.06848674
2	0x3df2b52a	0.118509606
3	0x3cd4d38f	0.025979785
4	0xbcfc9617	-0.030833287
5	0xbe809472	-0.25113255
6	0x3d4fdd1b	0.050747972
7	0xbdaa16ab	-0.08305105
8	0xbc8c8d2e	-0.017157163
9	0xbe4617a6	-0.19344959
10	0xbe42745d	-0.18989702
11	0xbe195734	-0.14974672
12	0x00000000	0.0
13	0xbdb512d5	-0.088414825
14	0x3cb66d20	0.022268832
15	0x00000000	0.0
16	0x3e290c79	0.16508664
17	0x3dd21b34	0.10259095
18	0x3dbf503d	0.09341476
19	0x3ddf95db	0.109172545
20	0x3ddee066	0.10882644
21	0xbd4baa42	-0.049722917
22	0x3e0dff1f	0.13866852
23	0x3d9aa468	0.07550889
24	0x3dddc73f	0.10829019
25	0x3d5f5ea5	0.05453362
26	0xbdfa741a	-0.12229176
27	0xbdbaa685	-0.09113792
28	0x3d1a12a5	0.037615437
29	0xbe41154c	-0.1885578
30	0x00000000	0.0
31	0xbdc171be	-0.09445523

sequential_5/dense_25/MatMul f4 [32, 4]
0	0xbf1afc16	-0.605409
1	0x3eec7bb2	0.46188122
2	0xbbd06479	-0.0063596335
3	0xbdb5b463	-0.08872297
4	0x3e2b41ff	0.16724394
5	0x3de0ab53	0.109701775
6	0xbe8a62da	-0.27028543
7	0xbe937b70	-0.28805113
8	0xbdaaf93b	-0.08348318
9	0xbe75ebd5	-0.24015744
10	0xbd80961b	-0.0627863
11	0x3ecf420c	0.40480077
12	0xbeb31ebe	-0.34984392
13	0xbe93b7c4	-0.2885114
14	0x3e1dfa04	0.15427405
15	0xbed8f52d	-0.42374554
16	0xbefdcce2	-0.49570376
17	0xbdfc1562	-0.12308766
18	0x3ea9c1ce	0.33155674
19	0xbcf87bfa	-0.030332554
20	0x3c1c544c	0.009541582
21	0xbde5fd5d	-0.11229966
22	0x3ec01bac	0.37521112
23	0x3e8841de	0.26612753
24	0x3ec536b7	0.38518307
25	0x3e2bc975	0.16776069
26	0xbece1dca	-0.40257102
27	0x3d8283bf	0.06372785
28	0xbd874fdc	-0.06607029
29	0x3e3b0a8f	0.18265747
30	0x3e2883fd	0.164566
31	0x3cd67062	0.026176635
32	0x3eca5046	0.3951437
33	0x3e999890	0.29999208
34	0x3d69a6b5	0.05704375
35	0x3ec0a225	0.37623706
36	0xbe70fa7d	-0.23533054
37	0x3da387cc	0.079848856
38	0x3e84bc21	0.2592478
39	0x3d904ae4	0.07045534
40	0x3ed2362e	0.4105696
41	0xbe3ce663	-0.1844726
42	0x3e028920	0.12747622
43	0xbe0ae4dc	-0.13563865
44	0xbd3bfdf5	-0.04589649
45	0xbe9402e9	-0.2890847
46	0x3d1546a4	0.03644432
47	0x3df8e120	0.12152314
48	0xbdcedc14	-0.1010057
49	0xbd6273e0	-0.05528629
50	0xbded2b18	-0.11580485
51	0xbe3295f8	-0.17440021
52	0xbec03422	-0.37539774
53	0x3eb389fa	0.35066205
54	0x3d73ff39	0.05956957
55	0xbf013202	-0.5046693
56	0xbe1bbe83	-0.15209393
57	0xbe445d32	-0.19176176
58	0x3bed225c	0.007236762
59	0x3ec64672	0.3872562
60	0xbe3239e8	-0.17404902
61	0x3c8fdae0	0.017560422
62	0xbeca7030	-0.39538717
63	0xbec726f1	-0.38896897
64	0xbdd0379d	-0.101668574
65	0x3db39a73	0.08769693
66	0xbdedd76a	-0.116133526
67	0x3e363ef4	0.17797452
68	0x3e848402	0.25881964
69	0xbe72ec7e	-0.23723027
70	0x3bd814ea	0.00659429
71	0xbd910749	-0.07081468
72	0x3d7f9f76	0.062407933
73	0xbe87387e	-0.26410288
74	0x3da3129e	0.07962535
75	0x3e9da663	0.30791005
76	0xbc5b5464	-0.0133868195
77	0xbe0dc8d7	-0.13846146
78	0x3db34d4c	0.087549776
79	0xbf1f716b	-0.6228244
80	0xbc0ae82f	-0.008478208
81	0x3927b884	0.00015995099
82	0xbe844a3f	-0.25837895
83	0x3e89a9cb	0.26887354
84	0xbebe1e2b	-0.3713239
85	0xbea760b9	-0.3269098
86	0x3e3f46b9	0.18679322
87	0x3ca89cd9	0.020582603
88	0x3edbfcbb	0.42966256
89	0xbe470d8a	-0.19438758
90	0xbef2a1f0	-0.47389174
91	0xbc781afb	-0.015143151
92	0xbef841eb	-0.4848779
93	0xbe7ec793	-0.24880819
94	0x3d3d534d	0.04622202
95	0x3e8c175b	0.2736157
96	0x3d07c9b0	0.03315133
97	0x3ef7cfb8	0.48400664
98	0xbe012aa7	-0.12613927
99	0x3dd39c2d	0.103325225
100	0x3df9da2e	0.121998176
101	0xbf16503e	-0.5871619
102	0x3d3486d4	0.044073895
103	0xbf1aa5e8	-0.604094
104	0xbe8537f0	-0.2601924
105	0x3da62624	0.081127435
106	0x3ead2c18	0.33822703
107	0xbe653cc2	-0.22386459
108	0xbeb3d540	-0.35123634
109	0x3e0886b1	0.1333263
110	0x3e595d24	0.21226937
111	0x3e15db0b	0.1463434
112	0x3d321acf	0.043482598
113	0x3df43a5e	0.11925195
114	0xbd971aec	-0.07378182
115	0xbe56cc1a	-0.20976296
116	0x3e41ef2b	0.18938892
117	0x3e76990a	0.24081817
118	0xbe08d78b	-0.13363473
119	0x3e1f1439	0.15535058
120	0xbea023fd	-0.31277457
121	0xbde2e2a8	-0.110783875
122	0xbcb9c990	-0.02267912
123	0xbe3063a1	-0.17225505
124	0x3dce530d	0.100744344
125	0x3c9feb8f	0.019521503
126	0x3e96f0fb	0.29480729
127	0xbe578b25	-0.21049173

sequential_5/dense_26/MatMul i1 [32, 32] scale=0.005566151 zero_point=0
0	0x27	0.21707988
1	0x1c	0.15585223
2	0x04	0.022264604
3	0x27	0.21707988
4	0xed	-0.105756864
5	0x16	0.12245532
6	0x0e	0.077926114
7	0xd1	-0.26160908
8	0xda	-0.21151373
9	0xfc	-0.022264604
10	0xd0	-0.26717526
11	0xfb	-0.027830753
12	0xd6	-0.23377834
13	0x11	0.094624564
14	0xf8	-0.044529207
15	0xd7	-0.2282122
16	0xc7	-0.3172706
17	0x02	0.011132302
18	0x03	0.016698454
19	0xf9	-0.038963057
20	0xed	-0.105756864
21	0x00	0.0
22	0x25	0.20594758
23	0xe1	-0.17255068
24	0x29	0.2282122
25	0xf8	-0.044529207
26	0xf3	-0.072359964
27	0xdc	-0.20038143
28	0x1c	0.15585223
29	0x06	0.033396907
30	0xd1	-0.26160908
31	0x17	0.12802146
32	0x11	0.094624564
33	0xfc	-0.022264604
34	0x88	-0.6679381
35	0xf8	-0.044529207
36	0xc2	-0.34510136
37	0x23	0.19481528
38	0x10	0.089058414
39	0x0d	0.072359964
40	0x24	0.20038143
41	0x04	0.022264604
42	0x37	0.3061383
43	0xdd	-0.19481528
44	0x1a	0.14471993
45	0x40	0.35623366
46	0xee	-0.100190714
47	0xd6	-0.23377834
48	0xda	-0.21151373
49	0xe5	-0.15028608
50	0xe5	-0.15028608
51	0x0f	0.083492264
52	0xdd	-0.19481528
53	0xd4	-0.24491064
54	0x4b	0.4174613
55	0xfc	-0.022264604
56	0xc5	-0.3284029
57	0x96	-0.590012
58	0xf2	-0.077926114
59	0x30	0.26717526
60	0x14	0.111323014
61	0x1f	0.17255068
62	0x2e	0.25604293
63	0x18	0.13358763
64	0xde	-0.18924913
65	0xdb	-0.20594758
66	0xff	-0.005566151
67	0xbd	-0.3729321
68	0xd9	-0.21707988
69	0x1d	0.16141838
70	0xec	-0.111323014
71	0x2a	0.23377834
72	0x20	0.17811683
73	0xef	-0.094624564
74	0x12	0.100190714
75	0xee	-0.100190714
76	0x17	0.12802146
77	0x1d	0.16141838
78	0x24	0.20038143
79	0xe8	-0.13358763
80	0x1c	0.15585223
81	0x30	0.26717526
82	0x1b	0.15028608
83	0x40	0.35623366
84	0xf7	-0.050095357
85	0xbc	-0.37849826
86	0xc6	-0.32283676
87	0xc9	-0.3061383
88	0xf4	-0.066793814
89	0x08	0.044529207
90	0xf2	-0.077926114
91	0xd3	-0.25047678
92	0xf3	-0.072359964
93	0x14	0.111323014
94	0xe9	-0.12802146
95	0x43	0.3729321
96	0x03	0.016698454
97	0x1f	0.17255068
98	0xe4	-0.15585223
99	0xf1	-0.083492264
100	0x18	0.13358763
101	0xd8	-0.22264603
102	0xee	-0.100190714
103	0xe4	-0.15585223
104	0xd8	-0.22264603
105	0xdd	-0.19481528
106	0x01	0.005566151
107	0x24	0.20038143
108	0x11	0.094624564
109	0xfa	-0.033396907
110	0xf2	-0.077926114
111	0xe7	-0.13915378
112	0x00	0.0
113	0x17	0.12802146
114	0xd1	-0.26160908
115	0xed	-0.105756864
116	0xfd	-0.016698454
117	0x23	0.19481528
118	0x1f	0.17255068
119	0x0f	0.083492264
120	0x19	0.13915378
121	0xfc	-0.022264604
122	0x09	0.050095357
123	0xf5	-0.06122766
124	0xe6	-0.14471993
125	0xe6	-0.14471993
126	0x1e	0.16698453
127	0x26	0.21151373
128	0x43	0.3729321
129	0x2c	0.24491064
130	0x17	0.12802146
131	0xe2	-0.16698453
132	0x29	0.2282122
133	0xe3	-0.16141838
134	0x45	0.3840644
135	0xd3	-0.25047678
136	0x0d	0.072359964
137	0x08	0.044529207
138	0x27	0.21707988
139	0x02	0.011132302
140	0x2d	0.25047678
141	0xe7	-0.13915378
142	0xdb	-0.20594758
143	0x01	0.005566151
144	0x1f	0.17255068
145	0xcf	-0.2727414
146	0x00	0.0
147	0x38	0.31170446
148	0x2a	0.23377834
149	0x47	0.3951967
150	0x67	0.57331353
151	0x19	0.13915378
152	0x2d	0.25047678
153	0xf9	-0.038963057
154	0x07	0.038963057
155	0x07	0.038963057
156	0x1f	0.17255068
157	0xdd	-0.19481528
158	0xcb	-0.295006
159	0xc2	-0.34510136
160	0x1e	0.16698453
161	0x36	0.30057216
162	0xf9	-0.038963057
163	0x0b	0.06122766
164	0x2f	0.26160908
165	0x0e	0.077926114
166	0xf9	-0.038963057
167	0xf9	-0.038963057
168	0xef	-0.094624564
169	0x1a	0.14471993
170	0xfd	-0.016698454
171	0xba	-0.38963056
172	0x20	0.17811683
173	0xe2	-0.16698453
174	0x09	0.050095357
175	0x16	0.12245532
176	0x21	0.18368298
177	0xf7	-0.050095357
178	0xef	-0.094624564
179	0xf5	-0.06122766
180	0x2c	0.24491064
181	0x40	0.35623366
182	0x37	0.3061383
183	0xde	-0.18924913
184	0xca	-0.30057216
185	0xf4	-0.066793814
186	0x18	0.13358763
187	0x4e	0.43415976
188	0x03	0.016698454
189	0xe8	-0.13358763
190	0x35	0.295006
191	0xfe	-0.011132302
192	0xdf	-0.18368298
193	0x2a	0.23377834
194	0x21	0.18368298
195	0x04	0.022264604
196	0xea	-0.12245532
197	0xee	-0.100190714
198	0x0b	0.06122766
199	0xe5	-0.15028608
200	0x1d	0.16141838
201	0xe6	-0.14471993
202	0xf0	-0.089058414
203	0x01	0.005566151
204	0x32	0.27830756
205	0x2d	0.25047678
206	0xe6	-0.14471993
207	0xf8	-0.044529207
208	0xdc	-0.20038143
209	0xe4	-0.15585223
210	0x1a	0.14471993
211	0x09	0.050095357
212	0x37	0.3061383
213	0x09	0.050095357
214	0x31	0.2727414
215	0x55	0.47312284
216	0x35	0.295006
217	0x09	0.050095357
218	0xba	-0.38963056
219	0xe7	-0.13915378
220	0xf7	-0.050095357
221	0xe3	-0.16141838
222	0xf4	-0.066793814
223	0xc3	-0.3395352
224	0x25	0.20594758
225	0x19	0.13915378
226	0x27	0.21707988
227	0x0a	0.055661507
228	0x1f	0.17255068
229	0xd5	-0.2393445
230	0x24	0.20038143
231	0xdb	-0.20594758
232	0xf6	-0.055661507
233	0x30	0.26717526
234	0x01	0.005566151
235	0x1e	0.16698453
236	0xcf	-0.2727414
237	0x36	0.30057216
238	0xe6	-0.14471993
239	0x27	0.21707988
240	0x07	0.038963057
241	0xdb	-0.20594758
242	0xfe	-0.011132302
243	0x01	0.005566151
244	0x5a	0.50095356
245	0x1f	0.17255068
246	0xfc	-0.022264604
247	0x2c	0.24491064
248	0x01	0.005566151
249	0x27	0.21707988
250	0x0c	0.066793814
251	0x0a	0.055661507
252	0x28	0.22264603
253	0x1e	0.16698453
254	0xd4	-0.24491064
255	0xc7	-0.3172706

sequential_5/dense_27/MatMul i1 [64, 32] scale=0.006266964 zero_point=0
0	0xe5	-0.16920803
1	0xf0	-0.100271426
2	0xc0	-0.4010857
3	0x0d	0.081470534
4	0x1e	0.18800892
5	0x1f	0.19427589
6	0xe6	-0.16294107
7	0x2f	0.29454732
8	0x1f	0.19427589
9	0xf6	-0.06266964
10	0x21	0.20680982
11	0x04	0.025067857
12	0x27	0.2444116
13	0x1b	0.16920803
14	0x19	0.1566741
15	0xda	-0.23814464
16	0x00	0.0
17	0x01	0.006266964
18	0xef	-0.10653839
19	0xe3	-0.18174195
20	0x1d	0.18174195
21	0x01	0.006266964
22	0xff	-0.006266964
23	0x14	0.12533928
24	0xfd	-0.018800892
25	0x17	0.14414017
26	0xfe	-0.012533928
27	0x1d	0.18174195
28	0xca	-0.33841607
29	0xd0	-0.30081427
30	0xfc	-0.025067857
31	0x09	0.056402676
32	0x10	0.100271426
33	0x0c	0.07520357
34	0x03	0.018800892
35	0x09	0.056402676
36	0xec	-0.12533928
37	0x1f	0.19427589
38	0xf6	-0.06266964
39	0xe4	-0.175475
40	0x18	0.15040714
41	0xe9	-0.14414017
42	0x0b	0.06893661
43	0xef	-0.10653839
44	0xcd	-0.3196152
45	0xdb	-0.23187767
46	0x16	0.13787322
47	0x17	0.14414017
48	0x1f	0.19427589
49	0xd0	-0.30081427
50	0xe0	-0.20054285
51	0x0f	0.09400446
52	0x0e	0.0877375
53	0xd3	-0.2820134
54	0xdb	-0.23187767
55	0xeb	-0.13160625
56	0xe5	-0.16920803
57	0x17	0.14414017
58	0x19	0.1566741
59	0x1f	0.19427589
60	0x23	0.21934375
61	0x23	0.21934375
62	0xf9	-0.04386875
63	0xd9	-0.2444116
64	0x00	0.0
65	0xe2	-0.18800892
66	0xea	-0.13787322
67	0x0d	0.081470534
68	0x0d	0.081470534
69	0x2c	0.27574643
70	0xf3	-0.081470534
71	0x0b	0.06893661
72	0x20	0.20054285
73	0x05	0.03133482
74	0xc9	-0.34468302
75	0xfe	-0.012533928
76	0x0b	0.06893661
77	0x18	0.15040714
78	0xfb	-0.03133482
79	0x14	0.12533928
80	0xf1	-0.09400446
81	0x09	0.056402676
82	0xf8	-0.050135713
83	0x16	0.13787322
84	0xf9	-0.04386875
85	0x3b	0.3697509
86	0xff	-0.006266964
87	0x12	0.11280535
88	0xf8	-0.050135713
89	0x1a	0.16294107
90	0x16	0.13787322
91	0xd5	-0.26947945
92	0xdc	-0.2256107
93	0x19	0.1566741
94	0x27	0.2444116
95	0xdf	-0.20680982
96	0x04	0.025067857
97	0xe0	-0.20054285
98	0x21	0.20680982
99	0x26	0.23814464
100	0xc6	-0.3634839
101	0x03	0.018800892
102	0xde	-0.21307679
103	0x13	0.11907232
104	0xed	-0.11907232
105	0xf6	-0.06266964
106	0xd0	-0.30081427
107	0x2c	0.27574643
108	0x00	0.0
109	0x14	0.12533928
110	0xed	-0.11907232
111	0xfc	-0.025067857
112	0x1e	0.18800892
113	0x03	0.018800892
114	0x02	0.012533928
115	0x1d	0.18174195
116	0xf6	-0.06266964
117	0xf1	-0.09400446
118	0x15	0.13160625
119	0x14	0.12533928
120	0xc4	-0.37601784
121	0x1a	0.16294107
122	0x16	0.13787322
123	0xe4	-0.175475
124	0x1d	0.18174195
125	0xe6	-0.16294107
126	0x03	0.018800892
127	0xd4	-0.27574643
128	0xfc	-0.025067857
129	0xf0	-0.100271426
130	0xe9	-0.14414017
131	0xe7	-0.1566741
132	0x0d	0.081470534
133	0x03	0.018800892
134	0xf6	-0.06266964
135	0x28	0.25067857
136	0xfd	-0.018800892
137	0x15	0.13160625
138	0xe4	-0.175475
139	0x06	0.037601784
140	0x2b	0.26947945
141	0xf2	-0.0877375
142	0x07	0.04386875
143	0xe3	-0.18174195
144	0xe5	-0.16920803
145	0x05	0.03133482
146	0x15	0.13160625
147	0xf2	-0.0877375
148	0x23	0.21934375
149	0x30	0.30081427
150	0xf1	-0.09400446
151	0xf3	-0.081470534
152	0x05	0.03133482
153	0x12	0.11280535
154	0x0c	0.07520357
155	0xee	-0.11280535
156	0xd6	-0.2632125
157	0xe6	-0.16294107
158	0x0e	0.0877375
159	0x1c	0.175475
160	0xdf	-0.20680982
161	0xd8	-0.25067857
162	0xe0	-0.20054285
163	0xf9	-0.04386875
164	0x0e	0.0877375
165	0xf8	-0.050135713
166	0xf2	-0.0877375
167	0xce	-0.3133482
168	0x0b	0.06893661
169	0xe4	-0.175475
170	0xce	-0.3133482
171	0xff	-0.006266964
172	0x1c	0.175475
173	0xfc	-0.025067857
174	0x1a	0.16294107
175	0x16	0.13787322
176	0x38	0.35095
177	0x39	0.35721695
178	0xed	-0.11907232
179	0xf8	-0.050135713
180	0x19	0.1566741
181	0x2f	0.29454732
182	0xfa	-0.037601784
183	0x18	0.15040714
184	0xcf	-0.30708125
185	0x06	0.037601784
186	0x06	0.037601784
187	0x12	0.11280535
188	0x1f	0.19427589
189	0x2e	0.28828034
190	0x2b	0.26947945
191	0x02	0.012533928
192	0x0f	0.09400446
193	0xe2	-0.18800892
194	0x0a	0.06266964
195	0x14	0.12533928
196	0xe3	-0.18174195
197	0xe1	-0.19427589
198	0x14	0.12533928
199	0x00	0.0
200	0x04	0.025067857
201	0x1f	0.19427589
202	0x14	0.12533928
203	0xf2	-0.0877375
204	0xd2	-0.28828034
205	0xdf	-0.20680982
206	0x13	0.11907232
207	0x1e	0.18800892
208	0xf1	-0.09400446
209	0xe2	-0.18800892
210	0x03	0.018800892
211	0xfd	-0.018800892
212	0x18	0.15040714
213	0xe8	-0.15040714
214	0x03	0.018800892
215	0xfa	-0.037601784
216	0x23	0.21934375
217	0x29	0.25694552
218	0xf5	-0.06893661
219	0x19	0.1566741
220	0xe7	-0.1566741
221	0x10	0.100271426
222	0xf2	-0.0877375
223	0x1d	0.18174195
224	0x1f	0.19427589
225	0x0c	0.07520357
226	0x06	0.037601784
227	0xfb	-0.03133482
228	0xcf	-0.30708125
229	0x28	0.25067857
230	0x1a	0.16294107
231	0xcd	-0.3196152
232	0xe5	-0.16920803
233	0x02	0.012533928
234	0x08	0.050135713
235	0x1c	0.175475
236	0xe9	-0.14414017
237	0xf1	-0.09400446
238	0x1c	0.175475
239	0xcd	-0.3196152
240	0x18	0.15040714
241	0x17	0.14414017
242	0x0d	0.081470534
243	0xcb	-0.3321491
244	0xcd	-0.3196152
245	0xcb	-0.3321491
246	0x1b	0.16920803
247	0x3f	0.39481875
248	0xf6	-0.06266964
249	0xd1	-0.29454732
250	0x0c	0.07520357
251	0x14	0.12533928
252	0xf9	-0.04386875
253	0x06	0.037601784
254	0xf5	-0.06893661
255	0x19	0.1566741

sequential_5/dense_28/MatMul i1 [64, 64] scale=0.0058391285 zero_point=0
0	0x06	0.035034772
1	0xf4	-0.070069544
2	0xfd	-0.017517386
3	0x12	0.10510431
4	0x24	0.21020862
5	0x0a	0.058391284
6	0x25	0.21604775
7	0x36	0.31531295
8	0x1e	0.17517385
9	0xfc	-0.023356514
10	0xce	-0.29195642
11	0x24	0.21020862
12	0xed	-0.110943444
13	0x07	0.0408739
14	0x15	0.1226217
15	0xf5	-0.06423041
16	0xd8	-0.23356514
17	0x06	0.035034772
18	0x29	0.23940428
19	0xfc	-0.023356514
20	0x09	0.052552156
21	0x1c	0.1634956
22	0xfd	-0.017517386
23	0xd8	-0.23356514
24	0xf3	-0.07590867
25	0xd9	-0.22772601
26	0xa6	-0.5255216
27	0x11	0.09926519
28	0xd2	-0.2685999
29	0xc2	-0.36202598
30	0x08	0.046713028
31	0xd0	-0.28027818
32	0x1d	0.16933472
33	0xf9	-0.0408739
34	0xea	-0.12846082
35	0xcb	-0.3094738
36	0xc8	-0.3269912
37	0x09	0.052552156
38	0xfb	-0.029195642
39	0x18	0.14013909
40	0xb7	-0.4262564
41	0x16	0.12846082
42	0x11	0.09926519
43	0x20	0.18685211
44	0x04	0.023356514
45	0x19	0.14597821
46	0x25	0.21604775
47	0xe0	-0.18685211
48	0xf4	-0.070069544
49	0x13	0.110943444
50	0x54	0.4904868
51	0x06	0.035034772
52	0xe8	-0.14013909
53	0x11	0.09926519
54	0x12	0.10510431
55	0x16	0.12846082
56	0x19	0.14597821
57	0x9d	-0.57807374
58	0x1f	0.18101299
59	0xf6	-0.058391284
60	0xf7	-0.052552156
61	0xf4	-0.070069544
62	0xee	-0.10510431
63	0xdc	-0.21020862
64	0xe4	-0.1634956
65	0x24	0.21020862
66	0x0f	0.087586924
67	0x21	0.19269124
68	0xed	-0.110943444
69	0x03	0.017517386
70	0xea	-0.12846082
71	0xf7	-0.052552156
72	0xe8	-0.14013909
73	0x26	0.22188689
74	0xfe	-0.011678257
75	0xda	-0.22188689
76	0xf2	-0.0817478
77	0xfd	-0.017517386
78	0x1c	0.1634956
79	0xbe	-0.38538247
80	0x0c	0.070069544
81	0xe6	-0.15181734
82	0x05	0.029195642
83	0x38	0.3269912
84	0x0e	0.0817478
85	0xdf	-0.19269124
86	0xfc	-0.023356514
87	0x18	0.14013909
88	0xce	-0.29195642
89	0xe8	-0.14013909
90	0xda	-0.22188689
91	0x06	0.035034772
92	0xe0	-0.18685211
93	0x06	0.035034772
94	0x00	0.0
95	0x16	0.12846082
96	0x0f	0.087586924
97	0xf9	-0.0408739
98	0x08	0.046713028
99	0xfb	-0.029195642
100	0xdf	-0.19269124
101	0xfa	-0.035034772
102	0xe5	-0.15765648
103	0x0f	0.087586924
104	0xb7	-0.4262564
105	0x07	0.0408739
106	0xec	-0.11678257
107	0xe3	-0.16933472
108	0x1e	0.17517385
109	0xe8	-0.14013909
110	0x11	0.09926519
111	0x13	0.110943444
112	0x0c	0.070069544
113	0x10	0.093426056
114	0x0b	0.06423041
115	0xfa	-0.035034772
116	0xd5	-0.25108254
117	0x1f	0.18101299
118	0xfa	-0.035034772
119	0x2c	0.25692165
120	0x0c	0.070069544
121	0xd8	-0.23356514
122	0x23	0.2043695
123	0x15	0.1226217
124	0xe0	-0.18685211
125	0x08	0.046713028
126	0x32	0.29195642
127	0xf6	-0.058391284
128	0xe5	-0.15765648
129	0xea	-0.12846082
130	0x0b	0.06423041
131	0x27	0.22772601
132	0xf7	-0.052552156
133	0x1a	0.15181734
134	0xe8	-0.14013909
135	0xd9	-0.22772601
136	0x1d	0.16933472
137	0x0a	0.058391284
138	0x09	0.052552156
139	0x3a	0.33866945
140	0xbb	-0.40289986
141	0x29	0.23940428
142	0xf0	-0.093426056
143	0xdd	-0.2043695
144	0xd6	-0.2452434
145	0xe8	-0.14013909
146	0x06	0.035034772
147	0x28	0.23356514
148	0x16	0.12846082
149	0xd3	-0.2627608
150	0x1d	0.16933472
151	0xaf	-0.4729694
152	0x2f	0.27443904
153	0xa8	-0.5138433
154	0x06	0.035034772
155	0xe7	-0.14597821
156	0xc4	-0.3503477
157	0x20	0.18685211
158	0xe6	-0.15181734
159	0x07	0.0408739
160	0x1b	0.15765648
161	0x1c	0.1634956
162	0xec	-0.11678257
163	0x1d	0.16933472
164	0x24	0.21020862
165	0xd6	-0.2452434
166	0xe6	-0.15181734
167	0x1a	0.15181734
168	0x17	0.13429995
169	0x14	0.11678257
170	0xea	-0.12846082
171	0x00	0.0
172	0xe6	-0.15181734
173	0x1d	0.16933472
174	0xe5	-0.15765648
175	0x0d	0.07590867
176	0x08	0.046713028
177	0xd3	-0.2627608
178	0xb2	-0.45545202
179	0xda	-0.22188689
180	0xb0	-0.46713027
181	0x09	0.052552156
182	0x06	0.035034772
183	0xd6	-0.2452434
184	0x12	0.10510431
185	0x02	0.011678257
186	0x03	0.017517386
187	0x2a	0.2452434
188	0x2b	0.25108254
189	0xf2	-0.0817478
190	0xea	-0.12846082
191	0xed	-0.110943444
192	0x05	0.029195642
193	0xec	-0.11678257
194	0xf1	-0.087586924
195	0xe4	-0.1634956
196	0x24	0.21020862
197	0xdf	-0.19269124
198	0x06	0.035034772
199	0xfe	-0.011678257
200	0x2d	0.2627608
201	0xe3	-0.16933472
202	0x02	0.011678257
203	0xe9	-0.13429995
204	0x1b	0.15765648
205	0xc7	-0.33283034
206	0xff	-0.0058391285
207	0xea	-0.12846082
208	0x0c	0.070069544
209	0x06	0.035034772
210	0xe6	-0.15181734
211	0xe8	-0.14013909
212	0x0c	0.070069544
213	0x00	0.0
214	0x12	0.10510431
215	0x02	0.011678257
216	0x0b	0.06423041
217	0x36	0.31531295
218	0x11	0.09926519
219	0x0c	0.070069544
220	0x47	0.4145781
221	0xfe	-0.011678257
222	0x33	0.29779556
223	0xf1	-0.087586924
224	0x1c	0.1634956
225	0x24	0.21020862
226	0xfc	-0.023356514
227	0x1e	0.17517385
228	0xf9	-0.0408739
229	0x33	0.29779556
230	0xef	-0.09926519
231	0x34	0.30363467
232	0x0a	0.058391284
233	0xd8	-0.23356514
234	0xf1	-0.087586924
235	0xd2	-0.2685999
236	0x0a	0.058391284
237	0x02	0.011678257
238	0x0a	0.058391284
239	0x21	0.19269124
240	0x09	0.052552156
241	0xf8	-0.046713028
242	0xe3	-0.16933472
243	0x01	0.0058391285
244	0xfd	-0.017517386
245	0xf7	-0.052552156
246	0xf0	-0.093426056
247	0x1e	0.17517385
248	0xf4	-0.070069544
249	0xee	-0.10510431
250	0x03	0.017517386
251	0xea	-0.12846082
252	0x11	0.09926519
253	0xdb	-0.21604775
254	0xf8	-0.046713028
255	0x06	0.035034772

sequential_5/dense_29/MatMul i1 [128, 64] scale=0.0067636077 zero_point=0
0	0x12	0.12174494
1	0xf3	-0.0879269
2	0xf3	-0.0879269
3	0xfd	-0.020290824
4	0xfd	-0.020290824
5	0x0d	0.0879269
6	0x04	0.02705443
7	0xda	-0.2570171
8	0x06	0.040581647
9	0x19	0.1690902
10	0xe2	-0.20290823
11	0x0a	0.06763608
12	0xe7	-0.1690902
13	0xfc	-0.02705443
14	0xfe	-0.013527215
15	0xff	-0.0067636077
16	0xf5	-0.07439969
17	0x2e	0.31112596
18	0xed	-0.12850855
19	0xe4	-0.18938102
20	0xfe	-0.013527215
21	0x0c	0.081163295
22	0xf1	-0.10145412
23	0xfd	-0.020290824
24	0xf5	-0.07439969
25	0xea	-0.14879937
26	0x16	0.14879937
27	0x04	0.02705443
28	0xed	-0.12850855
29	0x25	0.2502535
30	0x0e	0.09469051
31	0xf1	-0.10145412
32	0x26	0.2570171
33	0xed	-0.12850855
34	0x0b	0.07439969
35	0xfe	-0.013527215
36	0xf6	-0.06763608
37	0xf8	-0.05410886
38	0x07	0.047345255
39	0x29	0.27730793
40	0x07	0.047345255
41	0x00	0.0
42	0xf2	-0.09469051
43	0x12	0.12174494
44	0x0c	0.081163295
45	0x01	0.0067636077
46	0xcb	-0.3584712
47	0xf2	-0.09469051
48	0x04	0.02705443
49	0x23	0.23672627
50	0xef	-0.11498133
51	0xf8	-0.05410886
52	0x10	0.10821772
53	0x17	0.15556298
54	0xfb	-0.03381804
55	0x12	0.12174494
56	0xf9	-0.047345255
57	0x03	0.020290824
58	0xdf	-0.22319905
59	0xe8	-0.16232659
60	0xef	-0.11498133
61	0x06	0.040581647
62	0x0f	0.10145412
63	0x04	0.02705443
64	0xd0	-0.32465318
65	0xf8	-0.05410886
66	0x14	0.13527216
67	0xec	-0.13527216
68	0xf7	-0.06087247
69	0x0d	0.0879269
70	0xf9	-0.047345255
71	0x1b	0.18261741
72	0x11	0.11498133
73	0xff	-0.0067636077
74	0x05	0.03381804
75	0x03	0.020290824
76	0x10	0.10821772
77	0x06	0.040581647
78	0x03	0.020290824
79	0x0e	0.09469051
80	0x0f	0.10145412
81	0xf6	-0.06763608
82	0x08	0.05410886
83	0xfb	-0.03381804
84	0xc0	-0.4328709
85	0x08	0.05410886
86	0x16	0.14879937
87	0x03	0.020290824
88	0xe1	-0.20967184
89	0x17	0.15556298
90	0x0a	0.06763608
91	0xcb	-0.3584712
92	0xf7	-0.06087247
93	0x02	0.013527215
94	0x15	0.14203577
95	0xd0	-0.32465318
96	0xfa	-0.040581647
97	0x00	0.0
98	0x07	0.047345255
99	0xd2	-0.31112596
100	0x01	0.0067636077
101	0xd3	-0.30436236
102	0xe7	-0.1690902
103	0x1a	0.1758538
104	0x08	0.05410886
105	0x07	0.047345255
106	0x1f	0.20967184
107	0x2d	0.30436236
108	0x3b	0.39905286
109	0x05	0.03381804
110	0xf6	-0.06763608
111	0x08	0.05410886
112	0x0a	0.06763608
113	0x0c	0.081163295
114	0xd6	-0.28407153
115	0x0e	0.09469051
116	0xf2	-0.09469051
117	0x09	0.06087247
118	0x00	0.0
119	0xf8	-0.05410886
120	0xf4	-0.081163295
121	0xf9	-0.047345255
122	0xd0	-0.32465318
123	0x06	0.040581647
124	0x02	0.013527215
125	0xfe	-0.013527215
126	0xc8	-0.37876204
127	0x1b	0.18261741
128	0x1d	0.19614463
129	0x13	0.12850855
130	0xf4	-0.081163295
131	0x12	0.12174494
132	0x2c	0.29759875
133	0xfa	-0.040581647
134	0xd9	-0.2637807
135	0xec	-0.13527216
136	0x0f	0.10145412
137	0x09	0.06087247
138	0xfc	-0.02705443
139	0x0a	0.06763608
140	0xeb	-0.14203577
141	0x03	0.020290824
142	0x16	0.14879937
143	0x08	0.05410886
144	0x15	0.14203577
145	0xf2	-0.09469051
146	0xed	-0.12850855
147	0x2c	0.29759875
148	0xf8	-0.05410886
149	0xe9	-0.15556298
150	0xf2	-0.09469051
151	0x0f	0.10145412
152	0xe6	-0.1758538
153	0xf9	-0.047345255
154	0x16	0.14879937
155	0xff	-0.0067636077
156	0x03	0.020290824
157	0xf5	-0.07439969
158	0xfe	-0.013527215
159	0x00	0.0
160	0xfd	-0.020290824
161	0xe0	-0.21643545
162	0xf2	-0.09469051
163	0xec	-0.13527216
164	0x06	0.040581647
165	0xf6	-0.06763608
166	0x2c	0.29759875
167	0xf5	-0.07439969
168	0x11	0.11498133
169	0xf3	-0.0879269
170	0xf2	-0.09469051
171	0xf5	-0.07439969
172	0x18	0.16232659
173	0xf0	-0.10821772
174	0x04	0.02705443
175	0x1e	0.20290823
176	0x14	0.13527216
177	0x08	0.05410886
178	0xfc	-0.02705443
179	0x07	0.047345255
180	0xee	-0.12174494
181	0x2d	0.30436236
182	0x15	0.14203577
183	0x19	0.1690902
184	0x09	0.06087247
185	0xf8	-0.05410886
186	0x13	0.12850855
187	0x06	0.040581647
188	0x06	0.040581647
189	0x24	0.24348988
190	0x02	0.013527215
191	0x27	0.2637807
192	0xe4	-0.18938102
193	0xf9	-0.047345255
194	0xf3	-0.0879269
195	0xee	-0.12174494
196	0x0f	0.10145412
197	0xf8	-0.05410886
198	0xf6	-0.06763608
199	0x20	0.21643545
200	0xeb	-0.14203577
201	0x03	0.020290824
202	0x0c	0.081163295
203	0x05	0.03381804
204	0xe8	-0.16232659
205	0xd7	-0.27730793
206	0x0b	0.07439969
207	0x10	0.10821772
208	0x14	0.13527216
209	0x09	0.06087247
210	0x14	0.13527216
211	0x00	0.0
212	0x0c	0.081163295
213	0x08	0.05410886
214	0x01	0.0067636077
215	0xe9	-0.15556298
216	0xf0	-0.10821772
217	0xec	-0.13527216
218	0xed	-0.12850855
219	0xeb	-0.14203577
220	0xe8	-0.16232659
221	0x0d	0.0879269
222	0x0e	0.09469051
223	0xea	-0.14879937
224	0xf0	-0.10821772
225	0x05	0.03381804
226	0x00	0.0
227	0xec	-0.13527216
228	0x05	0.03381804
229	0xfd	-0.020290824
230	0xec	-0.13527216
231	0x1f	0.20967184
232	0x11	0.11498133
233	0x12	0.12174494
234	0x0c	0.081163295
235	0x03	0.020290824
236	0x5e	0.63577914
237	0x03	0.020290824
238	0x02	0.013527215
239	0xfb	-0.03381804
240	0x1d	0.19614463
241	0xf9	-0.047345255
242	0x07	0.047345255
243	0x16	0.14879937
244	0x12	0.12174494
245	0xf8	-0.05410886
246	0xe1	-0.20967184
247	0xe7	-0.1690902
248	0xf8	-0.05410886
249	0xf0	-0.10821772
250	0xef	-0.11498133
251	0xeb	-0.14203577
252	0x21	0.22319905
253	0xf5	-0.07439969
254	0xfd	-0.020290824
255	0xff	-0.0067636077

sequential_5/dense_30/MatMul i1 [128, 128] scale=0.0073302533 zero_point=0
0	0xe3	-0.21257734
1	0xff	-0.0073302533
2	0x17	0.16859582
3	0x21	0.24189836
4	0xf3	-0.09529329
5	0x0e	0.102623545
6	0x0a	0.07330253
7	0x10	0.11728405
8	0x21	0.24189836
9	0xf8	-0.058642026
10	0x15	0.15393531
11	0xff	-0.0073302533
12	0x19	0.18325633
13	0x0f	0.1099538
14	0xee	-0.13194455
15	0x0c	0.08796304
16	0xec	-0.14660506
17	0xfa	-0.04398152
18	0x1f	0.22723785
19	0xfe	-0.0146605065
20	0x16	0.16126557
21	0x10	0.11728405
22	0x10	0.11728405
23	0x0b	0.08063278
24	0x11	0.124614306
25	0x0e	0.102623545
26	0x0e	0.102623545
27	0xf4	-0.08796304
28	0x08	0.058642026
29	0xf2	-0.102623545
30	0x0c	0.08796304
31	0xde	-0.24922861
32	0x0b	0.08063278
33	0x19	0.18325633
34	0xff	-0.0073302533
35	0xee	-0.13194455
36	0x03	0.02199076
37	0x1c	0.20524709
38	0x17	0.16859582
39	0x0c	0.08796304
40	0xee	-0.13194455
41	0xeb	-0.15393531
42	0x02	0.0146605065
43	0xfa	-0.04398152
44	0x0a	0.07330253
45	0x05	0.036651265
46	0x01	0.0073302533
47	0x29	0.3005404
48	0xfb	-0.036651265
49	0x21	0.24189836
50	0x14	0.14660506
51	0x19	0.18325633
52	0xfe	-0.0146605065
53	0x0c	0.08796304
54	0x0d	0.09529329
55	0x11	0.124614306
56	0xf5	-0.08063278
57	0x2c	0.32253113
58	0x1c	0.20524709
59	0x06	0.04398152
60	0x1d	0.21257734
61	0x0a	0.07330253
62	0xfa	-0.04398152
63	0x34	0.38117316
64	0xfc	-0.029321013
65	0x07	0.051311772
66	0x08	0.058642026
67	0xfa	-0.04398152
68	0xf8	-0.058642026
69	0x1e	0.2199076
70	0xf2	-0.102623545
71	0x10	0.11728405
72	0x19	0.18325633
73	0x0d	0.09529329
74	0xcd	-0.37384292
75	0xff	-0.0073302533
76	0xff	-0.0073302533
77	0xe8	-0.17592607
78	0xf2	-0.102623545
79	0x2b	0.3152009
80	0xe7	-0.18325633
81	0xff	-0.0073302533
82	0xfe	-0.0146605065
83	0x10	0.11728405
84	0x2e	0.33719164
85	0x00	0.0
86	0x0e	0.102623545
87	0xf7	-0.065972276
88	0x09	0.065972276
89	0x09	0.065972276
90	0xe4	-0.20524709
91	0x12	0.13194455
92	0x04	0.029321013
93	0xf1	-0.1099538
94	0x07	0.051311772
95	0x0e	0.102623545
96	0x08	0.058642026
97	0x09	0.065972276
98	0x06	0.04398152
99	0xeb	-0.15393531
100	0x22	0.24922861
101	0xff	-0.0073302533
102	0x29	0.3005404
103	0x12	0.13194455
104	0xed	-0.1392748
105	0x1c	0.20524709
106	0x00	0.0
107	0xfc	-0.029321013
108	0x14	0.14660506
109	0x04	0.029321013
110	0xfc	-0.029321013
111	0x27	0.28587988
112	0x0e	0.102623545
113	0x11	0.124614306
114	0xf1	-0.1099538
115	0x14	0.14660506
116	0x01	0.0073302533
117	0x03	0.02199076
118	0x1d	0.21257734
119	0xef	-0.124614306
120	0xe7	-0.18325633
121	0x04	0.029321013
122	0x07	0.051311772
123	0x02	0.0146605065
124	0x1a	0.19058658
125	0x0a	0.07330253
126	0xf6	-0.07330253
127	0x1b	0.19791684
128	0xf3	-0.09529329
129	0x0c	0.08796304
130	0xff	-0.0073302533
131	0x04	0.029321013
132	0xec	-0.14660506
133	0x0c	0.08796304
134	0x01	0.0073302533
135	0x14	0.14660506
136	0xf9	-0.051311772
137	0xfa	-0.04398152
138	0x03	0.02199076
139	0xff	-0.0073302533
140	0xea	-0.16126557
141	0xfa	-0.04398152
142	0x02	0.0146605065
143	0x10	0.11728405
144	0xf8	-0.058642026
145	0xf5	-0.08063278
146	0xef	-0.124614306
147	0x14	0.14660506
148	0xf2	-0.102623545
149	0x05	0.036651265
150	0xfd	-0.02199076
151	0xfb	-0.036651265
152	0xf5	-0.08063278
153	0xff	-0.0073302533
154	0x00	0.0
155	0x04	0.029321013
156	0xf3	-0.09529329
157	0xf0	-0.11728405
158	0x02	0.0146605065
159	0x0e	0.102623545
160	0x0d	0.09529329
161	0x0f	0.1099538
162	0x03	0.02199076
163	0x0b	0.08063278
164	0xfa	-0.04398152
165	0x04	0.029321013
166	0xed	-0.1392748
167	0xea	-0.16126557
168	0xed	-0.1392748
169	0x04	0.029321013
170	0x08	0.058642026
171	0x0e	0.102623545
172	0xf3	-0.09529329
173	0x03	0.02199076
174	0x0a	0.07330253
175	0xf6	-0.07330253
176	0xe9	-0.16859582
177	0xf0	-0.11728405
178	0xf6	-0.07330253
179	0x00	0.0
180	0xf5	-0.08063278
181	0x0f	0.1099538
182	0x02	0.0146605065
183	0x08	0.058642026
184	0xfe	-0.0146605065
185	0x05	0.036651265
186	0xf9	-0.051311772
187	0xf4	-0.08796304
188	0xed	-0.1392748
189	0x10	0.11728405
190	0x08	0.058642026
191	0xfe	-0.0146605065
192	0xfa	-0.04398152
193	0xf3	-0.09529329
194	0x11	0.124614306
195	0xef	-0.124614306
196	0x0c	0.08796304
197	0xf0	-0.11728405
198	0xf4	-0.08796304
199	0xeb	-0.15393531
200	0x03	0.02199076
201	0xfd	-0.02199076
202	0xf2	-0.102623545
203	0x08	0.058642026
204	0xee	-0.13194455
205	0xeb	-0.15393531
206	0xf7	-0.065972276
207	0x06	0.04398152
208	0xf9	-0.051311772
209	0xed	-0.1392748
210	0xf2	-0.102623545
211	0xf9	-0.051311772
212	0xf8	-0.058642026
213	0x03	0.02199076
214	0xf4	-0.08796304
215	0x00	0.0
216	0x06	0.04398152
217	0x12	0.13194455
218	0xf8	-0.058642026
219	0xf7	-0.065972276
220	0xf9	-0.051311772
221	0x09	0.065972276
222	0x05	0.036651265
223	0xfe	-0.0146605065
224	0xe9	-0.16859582
225	0xe7	-0.18325633
226	0xf3	-0.09529329
227	0xf3	-0.09529329
228	0x07	0.051311772
229	0x13	0.1392748
230	0xf0	-0.11728405
231	0xfc	-0.029321013
232	0xf9	-0.051311772
233	0x11	0.124614306
234	0xf6	-0.07330253
235	0x02	0.0146605065
236	0xfd	-0.02199076
237	0xfa	-0.04398152
238	0x0e	0.102623545
239	0x0c	0.08796304
240	0xeb	-0.15393531
241	0x00	0.0
242	0x09	0.065972276
243	0x13	0.1392748
244	0xee	-0.13194455
245	0x0c	0.08796304
246	0xfd	-0.02199076
247	0xf3	-0.09529329
248	0xfc	-0.029321013
249	0x04	0.029321013
250	0xed	-0.1392748
251	0x0d	0.09529329
252	0x06	0.04398152
253	0xf8	-0.058642026
254	0xf1	-0.1099538
255	0xef	-0.124614306

sequential_5/dense_31/MatMul f4 [4, 128]
0	0x3e115cef	0.14195608
1	0xbd901282	-0.0703478
2	0xbef837fa	-0.48480207
3	0xbe013d5c	-0.12621063
4	0xbcde5eb5	-0.02714477
5	0xbe92724d	-0.2860283
6	0x3e81ecd6	0.25376004
7	0xbe0f0b09	-0.13969053
8	0x3e449007	0.19195567
9	0x3df7ba34	0.12096062
10	0x3e10c12b	0.14136188
11	0xbb5525d2	-0.0032523763
12	0x3ddc0d86	0.10744767
13	0x3dc74a28	0.09730941
14	0x3e5c569d	0.21517415
15	0x3dee0301	0.11621667
16	0xbd7034c8	-0.058644086
17	0xbb12db29	-0.0022408462
18	0x3d181104	0.037125602
19	0xbdd27486	-0.10276131
20	0xbeff93a5	-0.4991733
21	0x3e32b247	0.1745082
22	0xbd6844f5	-0.056706388
23	0x3e0440b0	0.12915301
24	0xbdc2752e	-0.094950065
25	0x3e4592b1	0.1929424
26	0xbe277a86	-0.16355333
27	0x3e28a2c1	0.16468336
28	0x3e3142a7	0.17310582
29	0x3e3a0a92	0.18168095
30	0xbcbfd321	-0.023416104
31	0x3e6a795c	0.22897857
32	0x3d9525b0	0.07282579
33	0x3df7fb4f	0.1210848
34	0x3e093e95	0.1340278
35	0xbc30b965	-0.010786389
36	0xbd43b006	-0.04777529
37	0xbda0759a	-0.07834931
38	0xbdb09952	-0.086229935
39	0x3e0cc487	0.13746844
40	0xbd584855	-0.052803356
41	0x3d81082f	0.06300389
42	0xbd3baf3b	-0.04582141
43	0xbda200ee	-0.079103336
44	0x3c5cab69	0.013468602
45	0xbe1b34c2	-0.15156844
46	0xbe0b45cd	-0.13600846
47	0xbdf6f45c	-0.120583266
48	0x3d05f76b	0.03270666
49	0x3e03c6d4	0.12868816
50	0xbe30cc4f	-0.17265438
51	0x3d982250	0.074284196
52	0xbe57f3aa	-0.21089044
53	0xbdc0c14f	-0.09411871
54	0x3dabeb82	0.08394529
55	0xbd95d180	-0.073153496
56	0x3e4be304	0.19910818
57	0x3d790aa3	0.06080116
58	0x3d3da64c	0.04630117
59	0x3b919cea	0.0044437544
60	0xbe0fa548	-0.14027894
61	0x3e530745	0.20608242
62	0xbde172cd	-0.11008225
63	0x3d716576	0.05893465
64	0x3cb8ea35	0.022572616
65	0x3e459c90	0.19298005
66	0x3e1277c2	0.14303496
67	0x3d6ccf20	0.057814717
68	0x3e44af6a	0.1920754
69	0xbed9f5c7	-0.42570326
70	0xbd28df70	-0.04122871
71	0xbe1d3163	-0.15350871
72	0x3d947712	0.07249273
73	0xbeacb865	-0.33734432
74	0xbe0058e1	-0.12533905
75	0xbdd88dd1	-0.10573924
76	0xbdd42721	-0.10359026
77	0xbc0404f7	-0.008057824
78	0xbcaf8703	-0.021426683
79	0xbc9fb8a3	-0.019497221
80	0xbf019856	-0.5062307
81	0xbed08399	-0.407254
82	0xbe50b8b4	-0.20382959
83	0xbe996400	-0.29959106
84	0xbc7c8230	-0.0154118985
85	0x3d09508b	0.033524077
86	0x3c7945ca	0.015214393
87	0xbde94f9c	-0.113921374
88	0xbbe31c8e	-0.006930894
89	0xbe0628ba	-0.13101473
90	0x3dea85ac	0.11451277
91	0x3d69fbbd	0.057124842
92	0xbda30372	-0.079596415
93	0x3de39bca	0.11113699
94	0xbe0c3a00	-0.13694
95	0x3e24743a	0.16059962
96	0xbe3cba10	-0.18430352
97	0x3e01d90f	0.12680458
98	0x3e67b5ca	0.22627941
99	0x3dbce886	0.09224038
100	0x3e3b3787	0.18282901
101	0xbf039abf	-0.51408
102	0x3e198c95	0.14995034
103	0x3df8f38f	0.1215583
104	0x3e049b0f	0.12949775
105	0xbec6362c	-0.38713205
106	0xbe891f09	-0.2678149
107	0xbef97973	-0.4872547
108	0x3db34111	0.08752645
109	0xbd43c0ed	-0.04779141
110	0x3ce3545d	0.027750188
111	0x3e057f15	0.13036759
112	0x3ec62ae1	0.3870459
113	0xbeaacafb	-0.33357987
114	0x3e0e3e6a	0.13890997
115	0x3c557949	0.013029405
116	0x3d211c31	0.039333526
117	0x3e425111	0.18976237
118	0xbeb1974b	-0.3468574
119	0x3ddffa04	0.109363586
120	0x3e1a7afb	0.15085976
121	0xbebfdfc2	-0.374754
122	0xbe346fa5	-0.17620714
123	0xbe310ed7	-0.17290817
124	0x3d3a79c4	0.04552628
125	0xbe73366c	-0.23751229
126	0xbc973431	-0.018457504
127	0xbd8f365e	-0.069927916
128	0xbf00dd41	-0.50337607
129	0x3c5d7b02	0.013518097
130	0x3eeadf65	0.45873562
131	0xbcadf1df	-0.021233497
132	0xbe5c8a2c	-0.21537083
133	0xbd240c8d	-0.04005103
134	0xbebf26ee	-0.37334388
135	0x3ce87671	0.02837679
136	0xbe50a315	-0.20374711
137	0x3e155ca8	0.14586127
138	0xbeee043f	-0.46487615
139	0xbe95b53b	-0.2923983
140	0x3e3f7743	0.18697838
141	0xbde162a5	-0.11005143
142	0xbe89cb39	-0.2691286
143	0xbcdeeb60	-0.027211845
144	0x3e345329	0.17609848
145	0x3e1323d2	0.14369133
146	0xbe66a589	-0.22524084
147	0xbe8cab31	-0.2747436
148	0x3eac137f	0.33608624
149	0xbeca0cdf	-0.39462945
150	0xbd90c6e2	-0.07069184
151	0xbe5838c2	-0.21115401
152	0xbd8506a0	-0.06495404
153	0xbee22ef3	-0.44176444
154	0x3ceabebd	0.028655404
155	0x3e82bfc8	0.25536942
156	0x3d8eb461	0.06967998
157	0x3d0cf7f2	0.034416147
158	0xbd4cf003	-0.05003358
159	0x3e033a5c	0.12815231
160	0x3bec6c81	0.007215083
161	0x3d924401	0.07141877
162	0x3e3adc1f	0.18248032
163	0xbe4982ce	-0.19678804
164	0xbed73c62	-0.42038256
165	0xbd562e0d	-0.05229001
166	0xbc90fe2b	-0.017699322
167	0xbe60a34f	-0.21937297
168	0x3e5f0e46	0.21782789
169	0xbe9c7768	-0.3055985
170	0x3e06530c	0.13117617
171	0x3e73e7d8	0.2381891
172	0xbe348a09	-0.17630781
173	0x3d9e32b7	0.07724517
174	0x3e16a17a	0.14710036
175	0x3e27b43b	0.16377346
176	0x3df30663	0.118664525
177	0x3c3c34be	0.011487184
178	0x3d30211c	0.043000326
179	0x3d614700	0.05499935
180	0x3d30df88	0.043181926
181	0x3e2046db	0.15652029
182	0xbce293d6	-0.027658384
183	0x3e1a0528	0.1504103
184	0x3dfb3a88	0.12267023
185	0xbeb92c61	-0.3616667
186	0x3e355f4c	0.17712134
187	0x3e017009	0.12640394
188	0x3d979aee	0.07402597
189	0x3e06b29f	0.13154076
190	0xbe19c146	-0.15015134
191	0xbdbefbe5	-0.09325389
192	0x3d6c90ef	0.057755407
193	0xbe3d7666	-0.18502197
194	0x3e03a1ca	0.12854686
195	0x3ce01e80	0.027358294
196	0x3d528b6b	0.05140249
197	0xbe859b3d	-0.26095
198	0x3c4c253c	0.012460049
199	0x3eb8cf87	0.3609583
200	0x3e4a31a4	0.19745499
201	0xbd852e70	-0.06502998
202	0xbe009f34	-0.12560731
203	0xbdafa75b	-0.085768424
204	0xbe4c4296	-0.19947276
205	0x3dff842d	0.124763824
206	0xbd816c71	-0.06319512
207	0xbdb85391	-0.09000314
208	0xbe721f1a	-0.23644677
209	0x3ea79c85	0.32736602
210	0xbb051e34	-0.0020312192
211	0xbde8127e	-0.11331652
212	0x3d232281	0.039827827
213	0xbeccdaa2	-0.40010554
214	0xbc676db1	-0.014125274
215	0x3e2cf603	0.16890721
216	0xbd4e7f1f	-0.0504142
217	0x3dc90e44	0.09817174
218	0xbc749865	-0.014928912
219	0xbdfe47c2	-0.124160305
220	0xbe79eaa5	-0.24405916
221	0xbd9210b1	-0.0713209
222	0x3d5eff91	0.054442946
223	0xbec96f69	-0.39342812
224	0x3eb0be4e	0.3452019
225	0xbe1b1017	-0.15142857
226	0x3d7103bc	0.058841452
227	0xbdf92f7e	-0.121672615
228	0xbf01e193	-0.50734824
229	0x3d4386bf	0.047735926
230	0xbece7374	-0.4032246
231	0xbdb7b3ef	-0.089698665
232	0xbcec6a5d	-0.028859312
233	0x3e2d5090	0.16925263
234	0xbdba8073	-0.09106531
235	0x3e17f078	0.14837825
236	0xbe29ea05	-0.16593178
237	0x3df14e59	0.11782522
238	0xbc43752e	-0.011929793
239	0xbe9a55b6	-0.30143517
240	0xbe177b96	-0.14793238
241	0xbd910267	-0.07080536
242	0xbe81d46c	-0.25357378
243	0xbed1af20	-0.40953922
244	0xbf1499ca	-0.58047163
245	0xbea82a57	-0.32844803
246	0x3d807116	0.062715694
247	0x3dbfcc9e	0.093651995
248	0xbe047104	-0.12933737
249	0xbe4ebbb5	-0.20188792
250	0x3e85b359	0.26113394
251	0xbd7962f7	-0.060885396
252	0xbc8789df	-0.016545234
253	0x3e69afbe	0.22820947
254	0xbee10ada	-0.43953592
255	0xbda3c99c	-0.07997438
